chess_rules/chess_model.pth (torch, 217313 bytes, 37 tensors)

conv0.weight f4 [32, 1, 13, 3, 3]
0.044629976 -0.09817758 0.01641364 -0.071242735 0.062466938 -0.025126552 0.00046294247 0.019380804
-0.07503401 -0.03551537 0.008837533 -0.06344379 0.057309393 0.03891042 -0.051504508 0.0030255227
0.019256257 -0.031423457 0.0050455793 0.009937335 -0.066924505 -0.05499828 -0.027364066 -0.06900361
-0.054699447 -0.056019194 -0.05735439 0.008977998 -0.022181928 0.03139853 0.09233659 0.07696134
0.07211241 -0.041329544 -0.00484396 -0.005761728 -0.06401486 -0.0026853613 0.018208044 -0.05634649
-0.07633683 -0.028801452 -0.040086593 0.023578992 -0.020688213 0.07201895 -0.021492818 -0.053913552
0.016273057 0.033867605 0.00933182 -0.032459203 -0.001637742 0.019741725 0.07876835 0.015207505
-0.051586628 0.07085247 0.07568253 0.014242851 0.039566744 0.036828883 0.008346478 -0.06007652
0.011341449 -0.045143545 0.03906355 -0.067206606 -0.025198156 0.028808607 0.02460922 -0.01613658
0.021509765 0.097958125 0.06081963 0.039741047 -0.019492436 0.019839766 0.07630981 0.07987509
-0.0065713385 0.043200396 -0.026866063 -0.047667444 0.066949785 -0.041530516 -0.030988682 0.07750065
0.00183297 -0.06519212 0.015414733 -0.06496041 0.023140274 -0.08358534 -0.063833505 -0.03897449
-0.02606834 0.054046847 -0.059838645 -0.11194928 -0.00050527765 0.009813225 -0.061152656 -0.09551226
0.054859914 0.027827863 0.04019093 -0.023648122 0.14740635 0.025094436 -0.058334794 -0.037917193
0.16656093 -0.0917024 -0.10464525 -0.077617206 -0.08655161 0.010009008 0.013345566 0.028675504
0.014914396 -0.004758351 -0.010793183 -0.0026954983 -0.00046267544 0.002529363 -0.020021912 0.0054910043
-0.02530594 -0.01558028 -0.003430972 -0.09255458 -0.0020014883 3.1376152e-05 -0.0015362538 -0.07967741
0.008583124 -0.0851116 0.009589367 -0.016349422 -0.0023417813 0.0239674 -0.06750993 -0.01558799
-0.08827233 0.01572783 -0.0066037425 -0.04016873 -0.038646046 -0.045090087 0.04169963 -0.034867506
0.032780673 0.05217077 -0.03141365 0.0034263893 0.034711305 0.036770638 0.021878049 -0.014273935
0.049837466 -0.0028556054 -0.10540397 -0.025583675 -0.06658614 0.00076558144 -0.03406243 -0.02999951
0.0074004056 0.01008524 -0.011985401 0.035563823 -0.0025142068 0.040096465 0.0053863353 -0.012799822
0.019046184 0.029236022 -0.0057161683 -0.0036465179 0.0050565987 0.0021187186 0.021837315 0.0033708876
-0.028991459 -0.033269193 -0.0061887885 -0.036711063 0.0014102277 -0.07097111 -0.009448189 -0.018725725
-0.04716249 -0.017478077 -0.03922563 0.0169567 -0.051528733 -0.002776819 -0.053431362 -0.024908016
0.03874613 0.018569168 0.013506815 -0.11632189 -0.013754408 -0.049288 -0.014182515 0.021972762
0.015980048 0.040398214 0.026578853 -0.05185563 0.0046396838 -0.063596934 0.051801864 -0.046888687
-0.008332362 -0.001985966 -0.0074681756 -0.02634568 -0.006027239 -0.02522359 0.017630354 -0.00727238
-0.008708037 0.2923628 -0.008347881 0.2839177 -0.030440697 0.056684267 0.20605072 -0.03202168
0.11859373 0.05399586 0.0036677232 0.019767918 -0.00057548675 0.01296538 -0.019372972 0.025145497
0.018719377 0.02993127 0.019082464 -0.011642416 -0.03668756 0.042027395 -0.023972962 0.020922087
0.022120124 0.019444142 0.03881951 -0.014947456 -0.009495274 0.01889963 0.010457971 0.0007738084
00000000: eccd 363d 5411 c9bd e675 863c b6e7 91bd
00000010: 55dd 7f3d 33d6 cdbc 16b7 f239 7ec4 9e3c
00000020: 6eab 99bd 9178 11bd 4dcb 103c d1ee 81bd
00000030: 41bd 6a3d 8860 1f3d 64f6 52bd d947 463b
00000040: 4cbf 9d3c e2b5 00bd 6355 a53b 34d0 223c
00000050: b70f 89bd e045 61bd 9b2a e0bc c451 8dbd
00000060: 870c 60bd 6274 65bd 70ec 6abd 7418 133c
00000070: e0b6 b5bc bf9b 003d f71a bd3d e89d 9d3d
00000080: acaf 933d 2b49 29bd 15ba 9ebb e1cc bcbb
00000090: 391a 83bd e3fc 2fbb 0929 953c 94cb 66bd
000000a0: 7c56 9cbd 06f1 ebbc d731 24bd bb28 c13c
000000b0: 547a a9bc ac7e 933d b511 b0bc 75d4 5cbd
000000c0: 134f 853c c2b8 0a3d 7de4 183c f1f3 04bd
000000d0: 81a9 d6ba 66b9 a13c 4d51 a13d e628 793c
000000e0: 804c 53bd 1a1b 913d 71ff 9a3d d95a 693c
000000f0: bd10 223d e2d9 163d abbf 083c cc12 76bd
00000100: 7cd1 393c 70e8 38bd 1a01 203d 9ea3 89bd
00000110: 5d6c cebc 0700 ec3c 4699 c93c dc30 84bc
00000120: 3f35 b03c 459e c83d 011e 793d 82c7 223d
00000130: 9aae 9fbc 0187 a23c 5148 9c3d 8d95 a33d
00000140: 6254 d7bb e6f2 303d 3816 dcbc f03e 43bd
00000150: f81c 893d e71b 2abd fadb fdbc a9b8 9e3d
00000160: 4440 f03a 7283 85bd 148e 7c3c f709 85bd
00000170: ac90 bd3c ca2e abbd 24bb 82bd b7a3 1fbd
00000180: 458d d5bc 3a60 5d3d 5e19 75bd aa45 e5bd
00000190: 9c74 04ba a6c7 203c 357b 7abd ef9b c3bd
000001a0: cab4 603d 42f7 e33c 3f9f 243d b5b9 c1bc
000001b0: b1f1 163e d992 cd3c 77f0 6ebd 0f4f 1bbd
000001c0: f38e 2a3e 78ce bbbd 4050 d6bd c5f5 9ebd
000001d0: f841 b1bd d3fc 233c 5ca7 5a3c e4e8 ea3c
000001e0: 835b 743c f1eb 9bbb e4d5 30bc f5a6 30bb
000001f0: 3f93 f2b9 abc3 253b fe04 a4bc e2ed b33b
00000200: 674e cfbc 6e44 7fbc 29da 60bb 418d bdbd
00000210: 672b 03bb e399 0338 205c c9ba e92d a3bd
00000220: 3ba0 0c3c fe4e aebd b81c 1d3c 39ef 85bc
00000230: 9278 19bb 4857 c43c a542 8abd c564 7fbc
00000240: 20c8 b4bd a6d7 803c 3564 d8bb f787 24bd
00000250: 514b 1ebd 62b0 38bd 3bcd 2a3d 3bd1 0ebd
00000260: 0745 063d 04b1 553d 99ab 00bd 468d 603b
00000270: 712d 0e3d cf9c 163d 9839 b33c 39dd 69bc
00000280: 5f22 4c3d 1c25 3bbb 09de d7bd db94 d1bc
00000290: 505e 88bd 4db1 483a 0c85 0bbd 88c1 f5bc
000002a0: 1a7f f23b 903c 253c 6a5e 44bc 5fab 113d
000002b0: 64c5 24bb 313c 243d db7f b03b 58b6 51bc
000002c0: be06 9c3c 6280 ef3c b24e bbbb 6bfa 6ebb
000002d0: d3b1 a53b 33da 0a3b 2be4 b23c 1cea 5c3b
000002e0: 7f7f edbc 4745 08bd 52cb cabb 575e 16bd
000002f0: 64d7 b83a 4d59 91bd 94cc 1abc b166 99bc
00000300: 752d 41bd 2f2e 8fbc 0eab 20bd c7e8 8a3c
00000310: cb0f 53bd 4bfb 35bb d8da 5abd e50b ccbc
00000320: 43b4 1e3d 5e1e 983c b04b 5d3c 2c3a eebd
00000330: 2b5a 61bc 37e2 49bd c85d 68bc 3900 b43c
00000340: 97e8 823c 9978 253d e5bb d93c 9266 54bd
00000350: 7d08 983b 1c3f 82bd 312e 543d 5a0e 40bd
00000360: 7684 08bc fb26 02bb 99b7 f4bb e5d2 d7bc
00000370: 2580 c5bb b4a1 cebc 886d 903c 254d eebb
00000380: 28ac 0ebc 94b0 953e 8dc5 08bc a95d 913e
00000390: c55e f9bc c32d 683d f6fe 523e 2a29 03bd
000003a0: 45e1 f23d c32a 5d3d 2f5e 703b 54f0 a13c
000003b0: 43dc 16ba bf6c 543c 11b4 9ebc eefd cd3c
000003c0: 6159 993c 6c32 f53c d452 9c3c d5bf 3ebc
000003d0: b245 16bd eb24 2c3d f262 c4bc cc64 ab3c
000003e0: 4335 b53c 5249 9f3c 3501 1f3d 2de6 74bc
000003f0: 1192 1bbc 66d3 9a3c e957 2b3c 67d9 4a3a

conv0.bias f4 [32]
0.07012177 -0.08628142 -0.00906671 -0.062323786 -0.032022443 0.03644069 0.001517256 0.053107657
-0.082236946 -0.03236147 0.0842034 -0.08535596 -0.061810818 0.090434596 0.049051084 0.04436763
-0.045860533 0.02627242 0.08956694 -0.015119806 0.07055662 -0.006641752 -0.018381169 -0.021828672
0.02808571 0.064641275 0.0053217243 -0.0059237564 -0.058125164 0.00692913 0.02311988 -0.011831845
00000000: 019c 8f3d 50b4 b0bd 8a8c 14bc 3a47 7fbd
00000010: f729 03bd d542 153d aade c63a 6a87 593d
00000020: d86b a8bd 768d 04bd d572 ac3d 1bcf aebd
00000030: 572d 7dbd c635 b93d cae9 483d d5ba 353d
00000040: 41d8 3bbd 4239 d73c df6e b73d 10b9 77bc
00000050: fd7f 903d 0ea3 d9bb 1b94 96bc 0bd2 b2bc
00000060: 0114 e63c a562 843d dc61 ae3b 121c c2bb
00000070: a714 6ebd c10d e33b e765 bd3c 5bda 41bc

bn0.weight f4 [32]
0.9629006 1.2105933 1.028469 0.94377947 0.99922067 1.0289408 1.0055896 0.98976815
0.98607075 1.1169792 0.9666531 0.96271 0.98101777 1.1372565 0.971965 0.97498363
1.2111346 0.9727861 0.97112924 0.99761236 1.0285947 0.9612341 1.0277909 0.9676837
1.1480181 0.97122395 0.99777097 1.0483803 0.97020847 1.0273066 0.96101636 0.96298677
00000000: a780 763f b9f4 9a3f dfa4 833f 889b 713f
00000010: edcc 7f3f 55b4 833f 29b7 803f 7261 7d3f
00000020: 226f 7c3f 2df9 8e3f 9476 773f 2a74 763f
00000030: fb23 7b3f 9f91 913f b3d2 783f 8798 793f
00000040: 7506 9b3f 8308 793f ed9b 783f 8663 7f3f
00000050: fea8 833f 7013 763f a78e 833f 1eba 773f
00000060: 42f2 923f 22a2 783f eb6d 7f3f 5331 863f
00000070: 955f 783f c87e 833f 2b05 763f 4d86 763f

bn0.bias f4 [32]
-0.022267822 -0.06423257 -0.04682973 -0.032805827 -0.03306064 -0.022383435 -0.002984439 -0.030470213
-0.028918076 -0.05830442 -0.031066077 -0.007159809 -0.028955773 -0.068292476 -0.018173972 -0.000240922
-0.10471993 -0.04123666 -0.028135477 -0.0570677 -0.015283834 -0.032908313 -0.037997358 -0.023158718
-0.11295273 -0.03512962 -0.04856642 -0.049660075 -0.00397719 -0.049764246 -0.032467153 -0.029191494
00000000: 026b b6bc 5e8c 83bd 88d0 3fbd 675f 06bd
00000010: 986a 07bd 775d b7bc 9496 43bb ab9c f9bc
00000020: 9ae5 ecbc 9ed0 6ebd 497e febc d59c eabb
00000030: a834 edbc eddc 8bbd 95e1 94bc 02a0 7cb9
00000040: 6777 d6bd c6e7 28bd 5f7c e6bc d2bf 69bd
00000050: 0c69 7abc deca 06bd 1ea3 1bbd 5ab7 bdbc
00000060: c353 e7bd 14e4 0fbd 95ed 46bd 5d68 4bbd
00000070: 1653 82bb 98d5 4bbd 47fc 04bd 0023 efbc

bn0.running_mean f4 [32]
0.077202894 -0.07171402 0.031875495 -0.035357017 0.007488853 0.023931585 -0.03255083 0.040558957
-0.028977431 -0.024552131 0.13672696 -0.03702849 -0.058026984 0.1030555 0.054984454 0.0878127
-0.050737992 0.018108247 0.10154295 -0.023294609 0.065052934 -0.04444345 -0.024311777 -0.02748666
0.03414715 0.07107674 0.034602977 -0.007036872 -0.014942535 -0.03897704 0.06357027 -0.02874591
00000000: 8d1c 9e3d cdde 92bd e18f 023d 85d2 10bd
00000010: 0d65 f53b 2c0c c43c 0554 05bd 2621 263d
00000020: 1462 edbc 8d21 c9bc 2702 0c3e 30ab 17bd
00000030: b4ad 6dbd c30e d33d 6137 613d 25d7 b33d
00000040: a4d2 4fbd bf57 943c c0f5 cf3d 56d4 bebc
00000050: 793a 853d 560a 36bd 7e29 c7bc b42b e1bc
00000060: e2dd 0b3d af90 913d dabb 0d3d 9095 e6bb
00000070: 89d1 74bc 64a6 1fbd 2131 823d 8b7c ebbc

bn0.running_var f4 [32]
0.011458841 0.0046777716 0.007013992 0.016562289 0.009446367 0.0052742613 0.0063301907 0.00909616
0.009725064 0.00526818 0.0068813334 0.016717693 0.007388546 0.004790592 0.009252554 0.013555303
0.005393254 0.010401418 0.017807405 0.005956349 0.0060585495 0.014010967 0.0068760305 0.014136538
0.0060149133 0.010930008 0.00749423 0.008420805 0.011334049 0.005523224 0.011606215 0.009210402
00000000: ddbd 3b3c fe47 993b a1d5 e53b a3ad 873c
00000010: efc4 1a3c b6d3 ac3b 7d6d cf3b 0f08 153c
00000020: e055 1f3c b2a0 ac3b cf7c e13b 8bf3 883c
00000030: 9e1b f23b 66fa 9c3b 0698 173c 1017 5e3c
00000040: e5b9 b03b b66a 2a3c d6e0 913c 7a2d c33b
00000050: cc86 c63b 418e 653c 5350 e13b f09c 673c
00000060: c018 c53b c713 333c 2892 f53b 6bf7 093c
00000070: 72b2 393c 29fc b43b fe27 3e3c 3ae7 163c

conv1.weight f4 [32, 32, 3, 3]
0.0073573086 -0.04369101 -0.01088577 0.042507175 -0.080673635 -0.019407002 0.055280633 -0.02416774
0.019514075 -0.040835306 0.03723102 -0.0113257645 -0.023211451 -0.032712 0.03885173 0.017005436
0.03506754 0.056898985 0.013959328 -0.0007255652 0.030717283 -0.019629246 -0.0061298483 0.0055691507
0.04592886 0.037622806 -0.0024767267 0.03754557 -0.0049311873 -0.011463898 -0.046930097 -0.03870564
-0.007934716 0.04770315 -0.027838213 -0.060367774 -0.008213235 0.037243385 0.020917289 0.04998991
-0.02075345 -0.031398524 -0.05684477 0.024569035 0.056842484 -0.0037394788 0.005467335 0.022008954
-0.016850166 -0.0014267805 0.041726016 0.034753475 0.006165957 0.006808976 -0.005063502 0.02508521
0.078902 -0.008225653 0.071314 0.017430136 -0.08715057 -0.0145691065 0.05497002 -0.01997439
0.042608716 0.047105473 0.029412033 -0.043859508 0.0058753192 0.002264915 -0.020565894 -0.011930098
-0.007849924 -0.02493318 -0.0009169848 0.05351592 0.024400484 0.049215607 -0.062005304 -0.010598946
0.0007665602 -0.008855675 -0.01249577 -0.046998765 -0.018478798 0.032728914 0.012047424 0.079894066
-0.020543069 0.067466825 -0.062888406 -0.049743816 0.021150893 -0.02622011 0.014366974 -0.023554258
0.059091475 0.036594074 -0.033556856 0.052424997 0.03455606 0.02229548 -0.02144948 -0.06262939
-0.025827734 -0.058810215 -0.04447206 -0.028887596 -0.027849365 0.04651859 -0.0015438737 0.046804234
-0.0302606 -0.028090073 0.022147296 0.04837523 0.0409115 0.044606894 0.007912683 0.035152934
-0.0056924224 0.04679606 0.01322432 0.067905344 -0.0014606776 0.0018173715 -0.00854236 -0.0073124263
0.014542244 0.030763436 -0.022661075 -0.00093399565 0.039797794 0.0026405174 -0.045407724 0.024799725
-0.018404339 -0.081630655 0.004686625 -0.030543076 -0.05862388 -0.053980034 -0.00915935 -0.06770107
-0.003407609 -0.01994821 0.012913312 0.0054104747 -0.00542507 -0.043741874 0.029493567 0.064497635
0.06735303 -0.020500477 -0.04888204 0.038087584 0.03258417 -0.035618618 -0.03392464 0.06553496
0.008642844 -0.00074276765 -0.03256346 -0.025094133 0.026109619 0.05516221 -0.037228722 0.038840998
-0.024586026 -0.036784098 -0.035653513 -0.027694164 0.0043446296 0.03295454 -0.0067750746 0.0544843
-0.026768757 -0.007517599 -0.046600923 -0.005768623 0.026133372 0.029004464 0.015772076 0.01665989
0.022179754 0.04935175 -0.03843066 -0.016674321 0.041461483 -0.008215606 0.02125381 -0.033614866
0.031352893 -0.020967044 0.024021264 0.012870091 -0.0030026452 -0.019503953 -0.033060156 0.017204514
0.041153442 -0.01743758 0.025818355 -0.04294567 -0.044952545 0.017281681 -0.005967719 0.017404167
-0.043922216 -0.011801826 0.031565364 -0.04464927 0.022815771 -0.024524922 -0.0026144832 0.026321573
-0.045691874 -0.04830039 -0.05060565 0.01283621 0.0061817444 0.08142787 0.0074320873 0.021182295
-0.0063675623 0.023733843 -0.0024405788 -0.003075503 -0.04565154 0.036060948 0.005501351 -0.026074128
-0.019827845 -0.025365707 0.024121048 0.011284304 -0.019771505 -0.02776886 -0.043391444 0.028080001
0.04982663 0.04590958 -0.01719952 0.0523611 0.059751667 -0.009771457 -0.014669348 0.035061076
0.051957745 0.021351937 -0.038555756 0.026515495 0.011039079 0.013662065 0.04281763 -0.034675233
00000000: 9415 f13b 58f5 32bd 3b5a 32bc 011c 2e3d
00000010: 3838 a5bd 6ffb 9ebc f26d 623d 6dfb c5bc
00000020: fbdb 9f3c ec42 27bd 8e7f 183d b38f 39bc
00000030: f125 bebc 05fd 05bd fe22 1f3d fc4e 8b3c
00000040: fba2 0f3d e90e 693d aab5 643c db33 3eba
00000050: d0a2 fb3c 83cd a0bc e5dc c8bb 6c7d b63b
00000060: e61f 3c3d 5f1a 1a3d 9450 22bb 62c9 193d
00000070: cc95 a1bb 13d3 3bbc c639 40bd ce89 1ebd
00000080: 9c00 02bc 6164 433d f70c e4bc 3344 77bd
00000090: ce90 06bc 858c 183d bc5a ab3c 38c2 4c3d
000000a0: 2403 aabc bd9b 00bd 10d6 68bd 0045 c93c
000000b0: aad3 683d 0b12 75bb 5527 b33b 1f4c b43c
000000c0: 5c09 8abc cf02 bbba e6e8 2a3d a959 0e3d
000000d0: cc0b ca3b d51d df3b bceb a5bb 807f cd3c
000000e0: 5f97 a13d e4c4 06bc 130d 923d a5c9 8e3c
000000f0: ff7b b2bd 43b3 6ebc 3e28 613d 55a1 a3bc
00000100: 7a86 2e3d abf1 403d 81f1 f03c 07a6 33bd
00000110: c085 c03b f86e 143b ce79 a8bc 7576 43bc
00000120: f89c 00bc ab40 ccbc cf61 70ba 8233 5b3d
00000130: 86e3 c73c 4e96 493d 46f9 7dbd 34a7 2dbc
00000140: fcf2 483a 6517 11bc 0fbb 4cbc c781 40bd
00000150: d960 97bc c10e 063d 8f62 453c 809f a33d
00000160: f049 a8bc 0c2c 8a3d a3cb 80bd 2cc0 4bbd
00000170: a344 ad3c 8ecb d6bc 7563 6b3c dcf4 c0bc
00000180: e709 723d abe3 153d ea72 09bd 98bb 563d
00000190: a88a 0d3d 03a5 b63c d2b6 afbc d643 80bd
000001a0: af94 d3bc fbe2 70bd 5628 36bd aea5 ecbc
000001b0: 5a24 e4bc 478a 3e3d ce5b caba ccb5 3f3d
000001c0: 14e5 f7bc 271d e6bc 3f6e b53c 1b25 463d
000001d0: d192 273d b8b5 363d 33a4 013c 86fc 0f3d
000001e0: 8087 babb 3aad 3f3d d1aa 583c f511 8b3d
000001f0: 3574 bfba de34 ee3a 41f5 0bbc 149d efbb
00000200: 9842 6e3c 9a03 fc3c b8a3 b9bc 63d7 74ba
00000210: 0303 233d 880c 2d3b 73fd 39bd cb28 cb3c
00000220: b2c4 96bc f92d a7bd 4392 993b 7935 fabc
00000230: 981f 70bd 2b1a 5dbd 1911 16bc dca6 8abd
00000240: 3152 5fbb 6e6a a3bc 5b92 533c 5a4a b13b
00000250: c9c4 b1bb ae2a 33bd 7e9c f13c 5617 843d
00000260: 63f0 893d 9ef0 a7bc 8938 48bd ba01 1c3d
00000270: fb76 053d d4e4 11bd 90f4 0abd 3137 863d
00000280: b79a 0d3c 4bb6 42ba 4361 05bd 3692 cdbc
00000290: d7e3 d53c c5f1 613d 257d 18bd bd17 1f3d
000002a0: a268 c9bc ecaa 16bd 6b09 12bd dfde e2bc
000002b0: 655d 8e3b 57fb 063d 7201 debb ee2a 5f3d
000002c0: 274a dbbc 3156 f6bb 9ce0 3ebd b806 bdbb
000002d0: a715 d63c c59a ed3c 7134 813c 527a 883c
000002e0: 51b2 b53c 1025 4a3d 7869 1dbd 9698 88bc
000002f0: 84d3 293d c09a 06bc 781c ae3c beaf 09bd
00000300: e46b 003d 14c3 abbc 3ec8 c43c 13dd 523c
00000310: 07c8 44bb c1c6 9fbc 166a 07bd 7bf0 8c3c
00000320: 8390 283d 41d9 8ebc 0481 d33c cde7 2fbd
00000330: 2920 38bd 5092 8d3c db8c c3bb 2f93 8e3c
00000340: c8e7 33bd 725c 41bc af4a 013d 27e2 36bd
00000350: 24e8 ba3c 7de8 c8bc c057 2bbb 57a0 d73c
00000360: 6727 3bbd a1d6 45bd df47 4fbd f84e 523c
00000370: 3b90 ca3b a8c3 a63d de88 f33b 7e86 ad3c
00000380: fca6 d0bb 7a6d c23c 1ef2 1fbb 618e 49bb
00000390: 1cfd 3abd a5b4 133d ad44 b43b 6999 d5bc
000003a0: 016e a2bc becb cfbc 8199 c53c cde1 383c
000003b0: daf7 a1bc 857b e3bc 3abb 31bd 0808 e63c
000003c0: 0217 4c3d af0b 3c3d 02e6 8cbc 9878 563d
000003d0: 2abe 743d 7618 20bc b457 70bc 349c 0f3d
000003e0: a5d1 543d 42ea ae3c a4ec 1dbd 0637 d93c
000003f0: 41dd 343c dbd6 5f3c 8a61 2f3d 9e07 0ebd

conv1.bias f4 [32]
-0.0037286405 0.041409336 -0.038500488 -0.040431354 -0.05749695 -0.021214118 0.030350866 -0.0037373507
0.047611047 0.017959904 -0.037941422 0.02787105 0.013674777 0.04424138 0.033520464 -0.055573273
0.016597394 0.035857808 -0.008942796 0.027212407 -0.014508547 -0.025422852 0.054588832 -0.02925009
0.037774913 -0.045658074 -0.04627146 -0.025085932 0.027081529 0.04844658 0.0391188 -0.05515911
00000000: 355c 74bb d69c 293d b0b2 1dbd 599b 25bd
00000010: ec81 6bbd 3bc9 adbc 61a2 f83c 57ee 74bb
00000020: cd03 433d a620 933c 7768 1bbd d451 e43c
00000030: 2c0c 603c 7336 353d c14c 093d cda0 63bd
00000040: 42f7 873c a3df 123d ce84 12bc 8eec de3c
00000050: 42b5 6dbc 9643 d0bc 8a98 5f3d e29d efbc
00000060: deb9 1a3d f603 3bbd 2487 3dbd 0381 cdbc
00000070: 15da dd3c ec6f 463d 093b 203d 85ee 61bd

bn1.weight f4 [32]
0.9961462 0.9407787 1.0069177 0.98833114 0.984852 0.9631774 0.9912102 0.97993726
0.9885562 0.98603344 1.0156373 1.002243 0.9830093 0.9753005 1.004558 1.0010968
0.9561403 0.9919099 1.0269358 0.9911202 0.9997383 1.0072938 0.97317505 0.98395544
0.99229604 0.9726601 0.9859505 0.96382576 0.9989518 0.9849048 1.0006075 0.9811292
00000000: 7003 7f3f dfd6 703f aee2 803f 4503 7d3f
00000010: 431f 7c3f cb92 763f f4bf 7d3f 2bdd 7a3f
00000020: 0512 7d3f b06c 7c3f 6700 823f 8049 803f
00000030: 7fa6 7b3f 4bad 793f 5b95 803f f123 803f
00000040: 9cc5 743f cfed 7d3f a272 833f 0eba 7d3f
00000050: d9ee 7f3f 01ef 803f 0022 793f 81e4 7b3f
00000060: 1d07 7e3f 4100 793f 4167 7c3f 49bd 763f
00000070: 4ebb 7f3f b922 7c3f e813 803f 492b 7b3f

bn1.bias f4 [32]
-0.028877921 -0.09120644 -0.044631198 -0.041389026 -0.032844476 -0.059624158 -0.02048331 -0.03770592
-0.05188297 -0.06904961 -0.04490718 -0.026672786 -0.01696957 -0.0750699 -0.041493367 -0.033480763
-0.067054026 -0.046867765 -0.049143743 -0.039843753 -0.054782126 -0.06042903 -0.029299757 -0.035758596
-0.06970894 -0.036815215 -0.053554986 -0.054697886 -0.026015619 -0.055179168 -0.015293934 -0.030650178
00000000: 6491 ecbc 71ca babd 34cf 36bd 8a87 29bd
00000010: ee87 06bd 7638 74bd 9dcc a7bc 8671 1abd
00000020: 3d83 54bd e269 8dbd 97f0 37bd e380 dabc
00000030: c503 8bbc 3fbe 99bd f3f4 29bd 2023 09bd
00000040: 9f53 89bd 6af8 3fbd f34a 49bd 3433 23bd
00000050: 3963 60bd 6e84 77bd 0b06 f0bc 9b77 12bd
00000060: 90c3 8ebd 8dcb 16bd 795c 5bbd e40a 60bd
00000070: b51e d5bc 8d03 62bd 6993 7abc 1516 fbbc

bn1.running_mean f4 [32]
0.103080764 0.18960944 0.007592485 0.05159828 -0.20389053 -0.017380359 -0.067761965 -0.11955978
0.23480171 0.07881044 0.17817928 -0.055145208 -0.07202483 -0.021386499 -0.0059678485 -0.07982752
0.13733545 0.29018772 -0.0084476685 0.019183582 0.08034237 0.16395713 0.04723063 -0.010258091
0.30050942 0.025330814 0.005015911 0.23239614 0.064073175 0.30415782 0.2641487 -0.052319106
00000000: 021c d33d fa28 423e 61ca f83b b858 533d
00000010: aec8 50be 4161 8ebc c9c6 8abd c2db f4bd
00000020: dc6f 703e 5e67 a13d a174 363e f1df 61bd
00000030: c181 93bd bd32 afbc f18d c3bb 9c7c a3bd
00000040: aaa1 0c3e 7c93 943e 1768 0abc e326 9d3c
00000050: 8a8a a43d 61e4 273e e874 413d 8d11 28bc
00000060: 5fdc 993e 9182 cf3c 835c a43b 41f9 6d3e
00000070: cc38 833d 93ba 9b3e 803e 873e 8f4c 56bd

bn1.running_var f4 [32]
0.15326877 0.12054769 0.1085586 0.11345308 0.11009269 0.14190257 0.08499546 0.13514887
0.10378266 0.11184486 0.14047576 0.11868424 0.1690114 0.123882644 0.13375637 0.11835004
0.13929044 0.16227038 0.11052229 0.10538714 0.12801164 0.1599494 0.10122506 0.13977657
0.13413309 0.13636847 0.11131058 0.16683845 0.14925452 0.12898473 0.08598977 0.19489856
00000000: 7df2 1c3e b5e1 f63d f953 de3d 175a e83d
00000010: 4778 e13d e84e 113e 1a12 ae3d 7764 0a3e
00000020: 018c d43d eb0e e53d e1d8 0f3e b910 f33d
00000030: 5311 2d3e 2fb6 fd3d 6ef7 083e 8161 f23d
00000040: 27a2 0e3e 352a 263e 8359 e23d 36d5 d73d
00000050: 7c15 033e c7c9 233e 164f cf3d 9721 0f3e
00000060: 2f5a 093e 2da4 0b3e cdf6 e33d b3d7 2a3e
00000070: 2dd6 183e 9314 043e 681b b03d 7d93 473e

conv2.weight f4 [32, 32, 3, 3]
-0.007284884 -0.017838344 0.008601404 0.019681746 -0.021153653 0.009277689 0.03198896 0.029476762
-0.022605093 -0.012687566 0.06562458 -0.03194503 0.031754967 0.11895256 0.04191288 -0.035070695
0.010741015 -0.008464131 -0.078283034 -0.037965428 -0.0007803355 -0.019194257 0.009106997 -0.02671247
0.0059292433 -0.020437207 -0.033116993 -0.023259617 -0.007172789 -0.025853887 0.019751722 -0.057263583
0.032726087 0.009221881 -0.0016828935 0.005573202 0.003033368 -0.0037491566 0.041149057 -0.058902036
0.0006544068 -0.02650639 0.061369807 -0.044447534 -0.036888022 0.017750029 -0.042891905 -0.03326784
0.054896288 0.08325295 0.014240096 0.028073527 -0.0147994 -0.04825005 0.06382998 0.016825628
6.210983e-05 -0.043204263 0.014435364 0.0016271375 0.0011683856 0.0046339827 0.045156557 -0.032007266
0.06173114 0.051260605 0.0368888 -0.03631146 0.0070581315 -0.013917138 0.05825175 0.019409273
-0.04293605 -0.009764575 0.05091213 -0.038128708 0.014680986 0.011666943 -0.012476685 0.021870019
-0.072187595 -0.013366483 -0.07904219 -0.06756511 0.016573451 0.0499831 0.0020963543 0.09630892
-0.0009745147 -0.00036028196 -0.028709777 -0.0043150275 -0.02718134 0.0001697961 0.0016119438 0.07380378
-0.008410007 -0.052833103 -0.02746106 0.040631168 0.00702364 0.011441656 -0.017381564 -0.0051189805
-0.018413732 -0.008256701 -0.062600546 0.013480511 -0.0064105038 0.0012316342 -0.019810827 0.011081079
0.0009822006 0.03517408 -0.061950848 -0.013636962 0.016113346 0.015506332 -0.016128013 0.02411927
0.06711214 0.088586785 0.013984862 0.042361822 -0.04457036 -0.008445113 0.0036227412 0.0041763447
0.028800398 0.016111346 0.0010385284 0.03493169 0.02200309 -0.013691705 9.793521e-05 -0.036100302
-0.015818523 0.011430058 -0.032480292 0.022899844 0.06282601 0.018463505 0.031484272 -0.026520362
-0.03737312 0.0823807 -0.043893375 0.074157596 -0.015812358 -0.005312156 -0.0055276826 0.05424883
-0.033834554 0.047883257 -0.042355042 0.033400264 -0.06720079 0.05873409 0.014030048 0.053988792
-0.038819626 0.01995146 -0.022148669 -0.005431751 -0.04737753 -0.03032865 0.025396278 0.04614723
0.0040732143 -0.028782267 -0.024396187 -0.025571834 -0.011253805 0.027331738 -0.035693206 0.057846293
-0.025414804 0.031360283 -0.024088304 -0.0062527866 -0.018998252 0.02937526 0.019639121 0.02084713
0.027002845 -0.036517777 0.030042112 -0.020189498 0.02594338 -0.0245213 -0.02417271 0.06739787
0.02455364 -0.027405428 -0.016564943 -0.0031675494 0.033061665 -0.011190808 -0.05793565 -0.032875195
-0.0044201007 0.008639121 0.041552883 -0.020098785 0.014675041 -0.0061867787 -0.03189515 -0.024984734
-0.013907449 -0.049868308 0.012805553 -0.04854014 0.0108259525 -0.015979508 -0.04642178 -0.042750344
0.03507378 0.07725179 -0.04146686 -0.01503597 0.0477928 0.026316404 0.056605257 -0.0154504785
-0.003413696 -0.033066265 0.011920779 -0.008199439 -0.059921376 -0.01772365 -0.012887874 -0.0258611
-0.034940492 0.01488241 0.040876072 0.034041364 0.06496581 -0.065502554 -0.014129144 -0.036971223
-0.0025586719 -0.038311988 0.002651414 -0.0340723 0.0023389123 0.00046495398 0.010330726 0.0028755073
-0.016476622 0.02612811 -0.019935092 -0.07119233 -0.044675514 -0.0056349346 0.012451045 0.005084081
00000000: 09b6 eebb b821 92bc e7ec 0c3c 9d3b a13c
00000010: 6d4a adbc 7301 183c db06 033d 4079 f13c
00000020: 512e b9bc 82df 4fbc 2e66 863d cbd8 02bd
00000030: 7f11 023d 669d f33d d7ac 2b3d 4aa6 0fbd
00000040: 15fb 2f3c 23ad 0abc db52 a0bd a381 1bbd
00000050: 6e8f 4cba 463d 9dbc 8435 153c 1cd4 dabc
00000060: 194a c23b ee6b a7bc afa5 07bd f48a bebc
00000070: b709 ebbb 88cb d3bc 5dce a13c 388d 6abd
00000080: ca0b 063d 5f17 173c 8994 dcba 689f b63b
00000090: 78cb 463b 69b4 75bb ea8b 283d 4343 71bd
000000a0: 7f8c 2b3a ee23 d9bc e85e 7b3d 9e0e 36bd
000000b0: e517 17bd 8268 913c 6caf 2fbd dc43 08bd
000000c0: eeda 603d 8680 aa3d 4b4f 693c 74fa e53c
000000d0: 2f79 72bc d8a1 45bd 4bb9 823d e6d5 893c
000000e0: f640 8238 f4f6 30bd 4e82 6c3c ad45 d53a
000000f0: 8424 993a aad8 973b 15f6 383d 0d1a 03bd
00000100: cbd9 7c3d a4f6 513d b618 173d 53bb 14bd
00000110: e647 e73b b504 64bc 6399 6e3d 3200 9f3c
00000120: b6dd 2fbd 99fb 1fbc 3d89 503d d92c 1cbd
00000130: 8588 703c b526 3f3c 036b 4cbc c128 b33c
00000140: 17d7 93bd 18ff 5abc dfe0 a1bd 945f 8abd
00000150: 0cc5 873c 14bb 4c3d fd62 093b 9c3d c53d
00000160: 9376 7fba 3ae4 bcb9 c430 ebbc 1365 8dbb
00000170: 67ab debc 4b0b 3239 dc47 d33a 7026 973d
00000180: 20ca 09bc 8667 58bd 04f6 e0bc de6c 263d
00000190: 9026 e63b c975 3b3c c863 8ebc 1fbd a7bb
000001a0: 65d8 96bc 1d47 07bc b734 80bd 5cdd 5c3c
000001b0: 340f d2bb c96e a13a 514a a2bc 6a8d 353c
000001c0: 2fbd 803a b212 103d 2cc0 7dbd 906d 5fbc
000001d0: 2300 843c 450e 7e3c e51e 84bc c695 c53c
000001e0: 1772 893d fd6c b53d c320 653c 9783 2d3d
000001f0: 698f 36bd 5f5d 0abc 836b 6d3b b8d9 883b
00000200: d0ee eb3c f1fb 833c 3b1f 883a 8814 0f3d
00000210: d33f b43c 2c53 60bc 9162 cd38 e9dd 13bd
00000220: d995 81bc 2345 3b3c 0e0a 05bd 7498 bb3c
00000230: ecaa 803d c740 973c a7f5 003d 3b41 d9bc
00000240: 8f14 19bd 36b7 a83d 8ac9 33bd f0df 973d
00000250: eb88 81bc 9811 aebb 9021 b5bb 0534 5e3d
00000260: 1a96 0abd 3c21 443d 7b7c 2dbd b7ce 083d
00000270: 91a0 89bd 2893 703d 49de 653c 5a23 5d3d
00000280: 5401 1fbd 3f71 a33c 2071 b5bc d4fc b1bb
00000290: f10e 42bd ca73 f8bc db0b d03c e104 3d3d
000002a0: 9978 853b cac8 ebbc 83da c7bc 067c d1bc
000002b0: e161 38bc cfe6 df3c 0a33 12bd 3cf0 6c3d
000002c0: b532 d0bc a473 003d d654 c5bc 2de4 ccbb
000002d0: 39a2 9bbc 63a4 f03c 39e2 a03c 9ac7 aa3c
000002e0: 1235 dd3c aa93 15bd e01a f63c 7264 a5bc
000002f0: 3687 d43c e5e0 c8bc d905 c6bc e507 8a3d
00000300: b724 c93c 5981 e0bc 34b3 87bc a996 4fbb
00000310: ab6b 073d a759 37bc ef4d 6dbd 24a8 06bd
00000320: 7ed6 90bb 1a8b 0d3c 5b33 2a3d 35a6 a4bc
00000330: 956f 703c 76ba cabb 7da4 02bd c9ac ccbc
00000340: 12dc 63bc b642 4cbd 62ce 513c 07d2 46bd
00000350: 565f 313c 75e7 82bc c424 3ebd fc1a 2fbd
00000360: 86a9 0f3d 3036 9e3d 27d9 29bd 6e59 76bc
00000370: 62c2 433d 8095 d73c eada 673d 0124 7dbc
00000380: 51b8 5fbb 7e70 07bd 5f4f 433c f156 06bc
00000390: 1e70 75bd 3031 91bc a927 53bc a8da d3bc
000003a0: c31d 0fbd 5ad5 733c ab6d 273d f56e 0b3d
000003b0: cb0c 853d 3426 86bd ed7d 67bc 236f 17bd
000003c0: 64af 27bb 08ed 1cbd 58c3 2d3b 658f 0bbd
000003d0: 7048 193b 11c5 f339 3542 293c 0273 3c3b
000003e0: fbf9 86bc 9e0a d63c eb4e a3bc 49cd 91bd
000003f0: acfd 36bd 42a5 b8bb 78ff 4b3c 5d98 a63b

conv2.bias f4 [32]
0.0011509389 0.032396022 0.03038799 -0.040740345 0.03184891 0.043540575 0.036072407 -0.0068073412
-0.030748816 -0.02553906 -0.01488031 0.050459325 -0.043813657 0.020688245 0.03781132 -0.03165609
0.05217546 -0.021380372 -0.04163454 0.0074178525 -0.03947068 -0.0060242596 -0.039277274 -0.020054882
-0.046155877 0.0354587 -0.03605327 -0.0508733 -0.037034392 0.031110436 0.04705655 -0.04692968
00000000: 1adb 963a b1b1 043d 3cf0 f83c 59df 26bd
00000010: 0174 023d 9a57 323d a9c0 133d 1e10 dfbb
00000020: f1e4 fbbc 4a37 d1bc 8bcc 73bc 70ae 4e3d
00000030: f375 33bd 657a a93c 0be0 1a3d d1a9 01bd
00000040: efb5 553d e425 afbc fb88 2abd 7511 f33b
00000050: 02ac 21bd 2767 c5bb 35e1 20bd 234a a4bc
00000060: f20d 3dbd 243d 113d 98ac 13bd 8560 50bd
00000070: 60b1 17bd 50db fe3c 5ebe 403d 5639 40bd

bn2.weight f4 [32]
1.0118815 0.9980717 1.017594 1.0110826 0.997226 1.0079348 1.0417792 1.0049645
0.9980339 0.9683359 0.9974823 0.99291015 1.0117289 0.9972449 1.0189627 1.0030746
0.9856439 0.99907416 1.0093282 1.0022709 1.0031592 0.99626 0.99777627 0.99390924
1.0161434 0.9832244 1.0154458 1.0161458 0.98903304 0.9954394 1.0035149 1.0318236
00000000: 5585 813f a081 7f3f 8540 823f 286b 813f
00000010: 344a 7f3f 0204 813f 0559 853f ada2 803f
00000020: 267f 7f3f dde4 773f 005b 7f3f 5c2f 7e3f
00000030: 5580 813f 714b 7f3f 5f6d 823f c064 803f
00000040: 2953 7c3f 53c3 7f3f ab31 813f 6a4a 803f
00000050: 8567 803f e50a 7f3f 446e 7f3f d670 7e3f
00000060: fd10 823f 98b4 7b3f 21fa 813f 1111 823f
00000070: 4531 7d3f 1ed5 7e3f 2d73 803f cc12 843f

bn2.bias f4 [32]
-0.019633867 -0.053918794 -0.023368144 -0.021899255 -0.01596297 -0.029550944 -0.01164295 -0.014205566
-0.035514984 -0.027325908 -0.0369015 -0.02565273 -0.0062005627 -0.039903123 -0.021179177 -0.027041957
-0.036117055 -0.021739228 -0.014389744 -0.017887076 -0.026480552 -0.044472028 -0.01527882 -0.020733126
-0.030785237 -0.03656481 -0.038599875 -0.03956362 -0.024853723 -0.015841186 -0.025876798 0.0048169936
00000000: 34d7 a0bc f4d9 5cbd 8d6e bfbc 1166 b3bc
00000010: c6c4 82bc d214 f2bc 12c2 3ebc 76be 68bc
00000020: 2978 11bd 95da dfbc 0726 17bd ad25 d2bc
00000030: 172e cbbb 7571 23bd f47f adbc 1887 ddbc
00000040: 7aef 13bd 7716 b2bc f6c2 6bbc eb87 92bc
00000050: beed d8bc 4d28 36bd 0454 7abc 84d8 a9bc
00000060: 5231 fcbc fbc4 15bd e71a 1ebd 760d 22bd
00000070: 099a cbbc 60c5 81bc 94fb d3bc dfd7 9d3b

bn2.running_mean f4 [32]
-0.12643637 -0.16864787 -0.3425986 0.33144656 -0.38968915 0.3206177 -0.016047405 -0.39083773
-0.23603755 0.6804834 0.72036374 -0.38386685 -0.23367989 0.30919015 -0.21102285 0.3964313
0.21643104 -0.2714675 -0.15214224 0.044187684 -0.18920924 0.095243745 0.30416864 -0.33284158
-0.099416316 0.09681104 0.11304468 0.24092111 -0.012683928 0.35357076 0.004600811 0.5612125
00000000: 8978 01be 07b2 2cbe 1569 afbe 5db3 a93e
00000010: 5685 c7be 0128 a43e d975 83bc e21b c8be
00000020: d4b3 71be 2934 2e3f c269 383f 328a c4be
00000030: c849 6fbe 2c4e 9e3e 6016 58be 0bf9 ca3e
00000040: 19a0 5d3e cafd 8abe 2dcb 1bbe 25fe 343d
00000050: 11c0 41be 270f c33d febb 9b3e 366a aabe
00000060: c89a cbbd de44 c63d f883 e73d 06b4 763e
00000070: 40d0 4fbc 3a07 b53e 66c2 963b 9fab 0f3f

bn2.running_var f4 [32]
0.41106126 0.2959535 0.28165442 0.26529408 0.3622189 0.33263373 0.28950685 0.38050002
0.2634828 0.40854713 0.43283907 0.3951468 0.35876155 0.30836242 0.27577385 0.3921513
0.28179327 0.30153605 0.35046092 0.2714629 0.3881184 0.27777645 0.3343003 0.2535067
0.3273788 0.32311603 0.3982102 0.34994525 0.30277577 0.2957053 0.2857046 0.3479148
00000000: 9f76 d23e 3887 973e 0235 903e a0d4 873e
00000010: c174 b93e f84e aa3e 3e3a 943e e6d0 c23e
00000020: 38e7 863e 172d d13e 159d dd3e ae50 ca3e
00000030: 98af b73e aee1 9d3e 3b32 8d3e 0ec8 c83e
00000040: 3547 903e ef62 9a3e 9d6f b33e 2ffd 8a3e
00000050: 74b7 c63e b738 8e3e 6929 ab3e a1cb 813e
00000060: 329e a73e 776f a53e 35e2 cb3e 062c b33e
00000070: 6d05 9b3e af66 973e e047 923e e321 b23e

conv3.weight f4 [32, 32, 3, 3]
0.034550868 -0.03614072 -0.033237167 -0.0060318923 0.062553935 -0.018099427 -0.043092497 0.004126794
-0.025006022 -0.023212742 -0.03448417 -0.0016706008 -0.023770882 0.02448944 -0.044255186 -0.025005661
-0.034746286 -0.03817284 0.046863355 0.060317345 -0.031880364 0.019314554 0.10781123 0.037430827
-0.05140476 -0.049879424 -0.05504943 -0.027993703 0.021058314 0.012230241 -0.04755595 -0.023469403
0.024394585 -0.018979141 -0.018064184 -0.043517016 -0.018765664 0.0040517375 -0.037487734 0.0312425
0.069145 -0.020987922 -0.015069184 -0.047253918 0.020573603 0.014270548 0.028865946 0.0066995514
-0.035601452 0.069740325 -0.0110277925 -0.03107893 0.023371385 -0.031180182 0.00078324694 0.018443855
-0.055949386 0.028325208 0.050332885 0.024065902 0.011039761 0.0309988 -0.030139415 0.029936207
-0.048642095 -0.023895876 0.055666547 -0.04800913 -0.0028923445 0.039597597 -0.012019066 0.013499929
0.037012182 0.004620926 0.011770456 0.03588727 0.03162402 -0.023158137 -0.049960107 -0.02085498
0.021352157 -0.04574425 -0.036507327 -0.027191931 0.0051774466 0.04398172 -0.029223911 -0.048011012
0.027383639 0.015720926 0.022472266 0.024115073 -0.05120482 0.016459042 0.10214776 -0.048196744
0.0117908595 -0.030396651 -0.023399776 0.028722694 0.062904455 0.0431159 -0.03150916 0.0008110022
0.01265874 -0.029288556 0.0050247204 0.055571478 0.021998595 -0.060821332 0.037324123 -0.008518902
-0.023388557 0.0181557 0.00023275163 0.04490532 0.044326574 -0.060718924 -0.0074448893 0.0067354203
0.0119278245 0.003561111 -0.0026184532 0.014538967 -0.018192327 -0.042484805 -0.031129278 0.019110583
0.036405575 0.010118988 -0.048604168 0.0264366 -0.043075766 0.0054229125 -0.041481204 -0.03839067
-0.03866731 -0.04801151 0.0028713485 0.044234555 0.05501284 0.0041072615 0.04196998 -0.027830431
0.0363996 0.0020223672 0.019193191 -0.04106683 -0.016303034 -0.053283803 -0.014034774 -0.02611441
0.0257328 -0.0019748048 -0.017248785 -0.0033853871 0.011532278 0.012990956 -0.046117246 -0.045886856
-0.01929139 -0.042797998 -0.000867738 0.0019055204 0.020262852 -0.0020741394 0.026779983 0.009016816
0.038886126 0.026093453 -0.0028969406 0.01558839 0.0021592756 -0.06606133 -0.019811982 0.08591274
0.026905032 0.019311775 0.024707882 0.03227289 0.051866096 -0.008649262 0.02740216 0.03052983
0.029249651 -0.066812776 -0.009736673 -0.066960976 0.039317008 -0.008278993 0.029236615 0.031259276
0.020696186 0.0532995 -0.045050193 0.04794707 0.021191955 -0.06247641 0.020041427 -0.04497133
-0.044233967 -0.018365761 0.0022273604 -0.010586982 -0.038247887 -0.013247747 -0.0026874568 -0.006500676
0.024691219 0.014498748 -0.030911606 -0.04116027 0.060594007 0.063945726 -0.041855663 0.015893914
0.028062502 -0.0024152002 -0.0027670872 0.023202332 0.017085077 -0.014586004 -0.009799396 -0.07331224
-0.009985357 -0.047475737 0.020091483 0.025096172 -0.042610604 -0.014490308 -0.038168304 -0.01732358
0.011178437 -0.017306687 0.0028417145 0.024230331 -0.03761538 0.06576889 0.054352175 -0.03001669
-0.056812923 0.036802616 0.023834078 -0.040812466 0.044027843 0.014357555 0.048662733 0.045938253
0.025603006 0.019443823 0.013132534 -0.030563511 -0.035582203 -0.013405354 -0.03785726 -0.026275594
00000000: 3685 0d3d 4b08 14bd b223 08bd 2ea7 c5bb
00000010: 471c 803d 4045 94bc c281 30bd 0f3a 873b
00000020: 6ed9 ccbc a628 bebc 463f 0dbd 10f8 daba
00000030: 27bb c2bc 149e c83c ed44 35bd acd8 ccbc
00000040: 1f52 0ebd 205b 1cbd caf3 3f3d 520f 773d
00000050: fc94 02bd 8e39 9e3c 22cc dc3d 1151 193d
00000060: cc8d 52bd 5e4e 4cbd 837b 61bd 0d53 e5bc
00000070: 7c82 ac3c 5961 483c 07ca 42bd e842 c0bc
00000080: 27d7 c73c 257a 9bbc 57fb 93bc e63e 32bd
00000090: 73ba 99bc 70c4 843b bd8c 19bd 45f0 ff3c
000000a0: e59b 8d3d ddee abbc bde4 76bc 538d 41bd
000000b0: f989 a83c 04cf 693c 4778 ec3c e987 db3b
000000c0: d4d2 11bd 04d4 8e3d eaad 34bc 3d99 febc
000000d0: 5975 bf3c 956d ffbc d052 4d3a 9117 973c
000000e0: 2f2b 65bd 440a e83c db29 4e3d db25 c53c
000000f0: 1de0 343c 32f1 fd3c efe6 f6bc c73c f53c
00000100: ef3c 47bd 49c1 c3bc 9b02 643d 39a5 44bd
00000110: 7d8d 3dbb 1731 223d 9eeb 44bc ce2e 5d3c
00000120: 169a 173d 236b 973b dfd8 403c 88fe 123d
00000130: 3088 013d 22b6 bdbc f8a2 4cbd 10d8 aabc
00000140: b8ea ae3c 535e 3bbd b588 15bd 9dc1 debc
00000150: 92a7 a93b 2d26 343d fc66 efbc 32a7 44bd
00000160: a753 e03c 2cc9 803c c217 b83c f98c c53c
00000170: 25bc 51bd 1dd5 863c d832 d13d f369 45bd
00000180: 732e 413c 6602 f9bc e3b0 bfbc db4b eb3c
00000190: 0dd4 803d 4c9a 303d c00f 01bd 7099 543a
000001a0: 9b66 4f3c 8eee efbc 69a6 a43b eb9e 633d
000001b0: 6636 b43c ca1f 79bd 2ee1 183d dd92 0bbc
000001c0: 5c99 bfbc 43bb 943c ca0e 7439 a4ee 373d
000001d0: c88f 353d 68b4 78bd 42f4 f3bb cdb4 dc3b
000001e0: ec6c 433c 8761 693b 5b9a 2bbb d934 6e3c
000001f0: 1308 95bc 8c04 2ebd d402 ffbc cc8d 9c3c
00000200: 031e 153d 1dca 253c 2a15 47bd 9291 d83c
00000210: 3770 30bd b0b2 b13b 32e8 29bd 893f 1dbd
00000220: 9d61 1ebd b8a7 44bd 3c2d 3c3b 4b2f 353d
00000230: 2555 613d 3596 863b b7e8 2b3d a5fc e3bc
00000240: bf17 153d b189 043b 0a3b 9d3c b135 28bd
00000250: f18d 85bc 1e40 5abd 1cf2 65bc e3ed d5bc
00000260: 98cd d23c ba6b 01bb 534d 8dbc 5fdd 5dbb
00000270: e1f1 3c3c 05d8 543c 70e5 3cbd dbf3 3bbd
00000280: fa08 9ebc f44c 2fbd e978 63ba a8c2 f93a
00000290: 48fe a53c 49ee 07bb b261 db3c 44bb 133c
000002a0: 0f47 1f3d f0c1 d53c 99da 3dbb 7266 7f3c
000002b0: a282 0d3b 2a4b 87bd bd4c a2bc 05f3 af3d
000002c0: f167 dc3c ba33 9e3c 2f68 ca3c 9430 043d
000002d0: 8b71 543d a2b5 0dbc 7f7a e03c b219 fa3c
000002e0: f79c ef3c 23d5 88bd 9186 1fbc d622 89bd
000002f0: df0a 213d 9da4 07bc a081 ef3c ba09 003d
00000300: 0c8b a93c 9450 5a3d 8d86 38bd 2664 443d
00000310: c09a ad3c 44e7 7fbd eb2d a43c db33 38bd
00000320: ad2e 35bd cb73 96bc e8f8 113b 0575 2dbc
00000330: d1a9 1cbd 140d 59bc 0b20 30bb 9f03 d5bb
00000340: 3d45 ca3c 288c 6d3c 563a fdbc ac97 28bd
00000350: 6c31 783d faf5 823d d870 2bbd f433 823c
00000360: 55e3 e53c 5648 1ebb 0558 35bb d112 be3c
00000370: 01f6 8b3c 23fa 6ebc a58d 20bc ba24 96bd
00000380: 9f99 23bc eb75 42bd e596 a43c 7d96 cd3c
00000390: 7588 2ebd c268 6dbc 5e56 1cbd 2eea 8dbc
000003a0: c325 373c c1c6 8dbc 0f3c 3a3b b07e c63c
000003b0: 9612 1abd d7b1 863d 63a0 5e3d 90e5 f5bc
000003c0: abb4 68bd 57be 163d af3f c33c f92a 27bd
000003d0: 8a56 343d f33b 6b3c 9352 473d c029 3c3d
000003e0: 65bd d13c a748 9f3c d729 573c 5460 fabc
000003f0: a5be 11bd 21a2 5bbc 3710 1bbd ea3f d7bc

conv3.bias f4 [32]
-0.05696735 -0.04410195 -0.01606 0.02480458 0.013880938 0.05218424 0.037661392 -0.016038842
-0.042503517 0.036345273 0.04080677 0.0019932159 -0.018917268 0.011953219 -0.030315962 0.038840238
-0.04560107 0.027144797 -0.044336427 0.0019004645 -0.042699687 -0.04320696 -0.04477137 -0.03181835
0.035016045 0.031360492 0.04586866 -0.056110654 -0.017963402 -0.026152106 -0.053769495 -0.018337792
00000000: 9956 69bd 3fa4 34bd 4390 83bc f932 cb3c
00000010: e06c 633c 24bf 553d d542 1a3d e463 83bc
00000020: 2b18 2ebd c8de 143d 0025 273d 9da0 023b
00000030: 63f8 9abc 6fd7 433c 2e59 f8bc f116 1f3d
00000040: 30c8 3abd c45e de3c 1d9a 35bd 0219 f93a
00000050: dee5 2ebd c8f9 30bd 2f62 37bd f553 02bd
00000060: fc6c 0f3d dc73 003d c7e0 3b3d 49d4 65bd
00000070: fc27 93bc f13c d6bc 673d 5cbd 2339 96bc

bn3.weight f4 [32]
0.96943516 0.99402153 0.98023325 0.9843718 0.98069733 0.9813411 0.98214144 0.9889579
0.99012977 0.9884495 0.9863174 0.9817266 0.99116313 0.9877487 0.9753827 0.97928953
0.99367577 0.99665105 0.95633703 0.97786766 1.0003244 0.98839295 0.9861039 0.9739808
1.0000042 0.99632436 0.98410124 0.99133927 0.9896355 1.0057551 0.9992801 1.0057331
00000000: e72c 783f 3278 7e3f 91f0 7a3f caff 7b3f
00000010: fb0e 7b3f 2c39 7b3f 9f6d 7b3f 582c 7d3f
00000020: 2579 7d3f 070b 7d3f 4c7f 7c3f 6f52 7b3f
00000030: debc 7d3f 19dd 7c3f aeb2 793f b8b2 7a3f
00000040: 8961 7e3f 8624 7f3f 81d2 743f 8955 7a3f
00000050: a10a 803f 5207 7d3f 4e71 7c3f ce56 793f
00000060: 2300 803f 1d0f 7f3f 0fee 7b3f 69c8 7d3f
00000070: c158 7d3f 95bc 803f d2d0 7f3f ddbb 803f

bn3.bias f4 [32]
-0.02524917 -0.023529297 -0.026515009 -0.015706008 -0.012663787 -0.026585182 -0.041974284 -0.030084038
-0.016756551 -0.023346873 -0.014237201 -0.020200582 -0.0063277017 -0.015061789 -0.02332947 -0.030748276
-0.0066190134 -0.0073500196 -0.016520072 -0.018837107 -0.02139322 -0.014586817 -0.030253557 -0.027897378
-0.02366502 -0.011730857 -0.04008081 -0.031134153 -0.008477523 -0.0122016445 -0.028634181 -0.0104525825
00000000: 59d7 cebc 83c0 c0bc 0136 d9bc e3a9 80bc
00000010: c67b 4fbc 2bc9 d9bc 3aed 2bbd cd72 f6bc
00000020: 0945 89bc f141 bfbc 2643 69bc b17b a5bc
00000030: 9c58 cfbb b9c5 76bc 721d bfbc cfe3 fbbc
00000040: 4fe4 d8bb 6fd8 f0bb 1a55 87bc 4750 9abc
00000050: d640 afbc 8bfd 6ebc 4fd6 f7bc 0b89 e4bc
00000060: 25dd c1bc c832 40bc c72b 24bd 0d0d ffbc
00000070: 4fe5 0abc 68e9 47bc 3b92 eabc 4f41 2bbc

bn3.running_mean f4 [32]
-0.08129397 -0.50543827 0.10477483 -0.6101553 -0.39190325 0.06855192 -0.20737687 -0.55045897
-0.2804727 0.12266401 0.103045166 -0.24611317 -0.49187353 0.36706313 0.19006552 0.16632217
0.03447033 -0.7472415 0.4133046 -0.105267376 -0.26884168 -0.11291356 -0.23280188 -0.33821616
-0.10551086 -0.5711895 -0.040481202 0.082166865 -0.39218968 -0.059707202 -0.35847917 0.063291706
00000000: 747d a6bd 6764 01bf 3094 d63d 2333 1cbf
00000010: 8ba7 c8be f364 8c3d 9a5a 54be e1ea 0cbf
00000020: 1e9a 8fbe 4537 fb3d 5809 d33d 1705 7cbe
00000030: d9d6 fbbe b3ef bb3e 89a0 423e 5c50 2a3e
00000040: c330 0d3d 384b 3fbf a99c d33e 6c96 d7bd
00000050: 9ea5 89be 393f e7bd 9e63 6ebe ab2a adbe
00000060: 1416 d8bd 7a39 12bf 9ecf 25bd 1a47 a83d
00000070: 16cd c8be 8a8f 74bd 958a b7be 159f 813d

bn3.running_var f4 [32]
0.50552607 0.48567373 0.35513726 0.5786154 0.5191382 0.39468127 0.40286514 0.604298
0.54683733 0.35413408 0.33668396 0.33675593 0.5527268 0.43265525 0.45049813 0.41723865
0.43934843 0.70839936 0.42344552 0.38699037 0.45297122 0.36182448 0.34025553 0.38845846
0.5079746 0.61494863 0.37987876 0.41717005 0.5436992 0.3781821 0.4369218 0.3350687
00000000: 286a 013f 3aaa f83e 8dd4 b53e 2420 143f
00000010: 3ee6 043f aa13 ca3e 5744 ce3e 46b3 1a3f
00000020: 88fd 0b3f 1051 b53e d761 ac3e 466b ac3e
00000030: 817f 0d3f fd84 dd3e b1a7 e63e 4ea0 d53e
00000040: 47f2 e03e a959 353f dacd d83e 9a23 c63e
00000050: d8eb e73e 0f41 b93e f935 ae3e 07e4 c63e
00000060: a00a 023f 466d 1d3f 787f c23e 5097 d53e
00000070: df2f 0b3f 16a1 c13e 37b4 df3e 208e ab3e

conv4.weight f4 [32, 32, 3, 3]
0.0107396 -0.005234866 -0.049807403 -0.058723234 -0.03911373 0.039689597 0.026085027 -0.054387096
-0.017333087 -0.023259513 0.027652921 0.016334187 -0.027683606 -0.020771973 0.052030325 0.020739753
-0.053559795 0.03227761 0.018386982 -0.015394665 0.034584757 0.0005999229 -0.059949458 -0.052766155
-0.053426582 -0.023679169 -0.0077803615 -0.021668755 -0.07504155 -0.03386593 0.061288696 0.010645768
-0.044946257 0.027682967 0.0049569793 0.048350766 0.05238051 0.022999536 -0.08369356 -0.03644251
-0.06914352 0.0066579874 0.040473342 -0.02211225 0.06680522 0.046403874 0.019803004 -0.038774367
-0.062549286 0.027661832 0.012098724 0.029447649 0.0055597946 0.038883343 0.040819693 -0.032527637
0.031734154 0.015234843 0.03578414 -0.014657874 -0.009045919 -0.05106326 -0.018368188 -0.038077865
-0.018102163 0.0010288836 0.042611595 0.009926102 -0.07390798 -0.0442229 0.028921315 0.043688506
-0.049943823 0.0004987421 0.045661636 -0.0005375508 0.0401434 -0.06081317 -0.016156478 -0.0012170406
-0.01254058 -0.044136707 -0.029285308 0.0500952 -0.04899832 -0.045715075 -0.011124662 0.031137303
-0.030598724 0.08601809 0.009013331 -0.029907038 -0.03169542 -0.04442101 -0.038325638 0.019898964
-0.06553251 -0.028421242 0.042693824 0.01717822 0.019723764 0.032438237 -0.00908914 -0.0056948145
0.042003997 -0.015892105 0.016580025 -0.027595254 0.006146088 0.02869534 -0.059071664 -0.024109297
0.037729565 0.029587884 0.061750088 -0.012795609 0.012732589 0.035577632 0.0023189026 -0.025767155
-0.046115704 -0.010104059 0.0044373674 -0.009040183 -0.018961495 -0.040731817 0.034548625 -0.028153032
0.011409368 0.016985046 -0.021526208 -0.030736027 -0.0152482055 0.05437159 0.04494175 -0.035145212
-0.031540077 0.059166107 -0.029435791 -0.024010317 -0.008102143 -0.025600564 0.019960819 -0.011981725
-0.012849238 -0.023117913 -0.030562716 0.021113565 0.047665946 0.012170881 -0.059473544 -0.042877622
0.054349016 0.021147331 -0.026023833 0.047645785 -0.0154849645 0.016537227 -0.054107632 0.011912235
-0.00023651282 -0.027867582 -0.012979869 -0.002701695 0.039322563 -0.059032455 -0.014407963 -0.035491403
0.0010896636 -0.015292507 -0.06227151 -0.016787643 0.01360258 0.012355731 0.049458604 -0.07016591
0.0055979597 -0.037490144 -0.03228388 -0.021171466 -0.008808259 0.041655183 -0.00464729 0.012095962
0.038481686 -0.018445367 0.023189653 -0.016215976 0.009906954 -0.050551787 0.03796326 0.012951833
0.039369438 -0.024998147 0.049531862 -0.0044421945 -0.013344447 -0.028985515 0.0054782857 -0.02924333
-0.020648329 0.040350575 -0.07562001 -0.011309691 -0.050890133 0.050106533 0.007742792 -0.023978757
-0.03371268 -0.023408104 0.03318342 0.028785823 0.0630806 0.007890896 0.016867975 -0.038201593
-0.005523179 -0.046661448 0.06775499 -0.00026608416 -0.02775345 -0.0009645825 0.05092836 -0.020239418
-0.07187327 0.078526594 0.031199073 -0.029000107 0.024045331 0.020985084 -0.017502178 0.0005591643
0.02990026 0.0028619037 -0.037268046 -0.03396647 -0.0014635653 -0.023788705 -0.0069172797 0.008565139
-0.0046392186 0.015109669 -0.025817242 0.035597168 -0.036638837 -0.0010086782 -0.012718035 0.036766235
0.012407026 0.024760153 -0.06570284 0.03516921 -0.005910728 0.009970663 -0.08045893 -0.0041619614
00000000: 26f5 2f3c 3d89 abbb d902 4cbd c687 70bd
00000010: b835 20bd 8f91 223d 44b0 d53c 01c5 5ebd
00000020: 1efe 8dbc bc8a bebc 6188 e23c 46cf 853c
00000030: bbc8 e2bc fc29 aabc c01d 553d 6ae6 a93c
00000040: 8461 5bbd 8735 043d 4ca0 963c e839 7cbc
00000050: bfa8 0d3d 2544 1d3a 908d 75bd 5321 58bd
00000060: d5d5 5abd d1fa c1bc 67f2 febb ac82 b1bc
00000070: 62af 99bd 00b7 0abd db09 7b3d 966b 2e3c
00000080: 9119 38bd 64c7 e23c 286e a23b 740b 463d
00000090: f28c 563d 8669 bc3c 8767 abbd be44 15bd
000000a0: 1e9b 8dbd 3f2b da3b 60c7 253d c024 b5bc
000000b0: 2dd1 883d fd11 3e3d e939 a23c dfd1 1ebd
000000c0: d719 80bd 119b e23c ba39 463c 323c f13c
000000d0: f02e b63b 2444 1f3d 8d32 273d b33b 05bd
000000e0: acfb 013d 909b 793c 6492 123d 9427 70bc
000000f0: 5635 14bc b527 51bd e278 96bc 89f7 1bbd
00000100: fd4a 94bc 9bdb 863a 7f89 2e3d 17a1 223c
00000110: 115d 97bd 1223 35bd 65ec ec3c b8f2 323d
00000120: e591 4cbd 04be 023a b207 3b3d 6cea 0cba
00000130: 686d 243d 3b17 79bd 975a 84bc 1b85 9fba
00000140: 0177 4dbc b1c8 34bd bee7 efbc a030 4d3d
00000150: 76b2 48bd bb3f 3bbd 3744 36bc a813 ff3c
00000160: 2daa fabc 412a b03d a6ac 133c 9bff f4bc
00000170: 0fd3 01bd cef2 35bd 58fb 1cbd 2703 a33c
00000180: e935 86bd aad3 e8bc b8df 2e3d 57b9 8c3c
00000190: bb93 a13c f5dd 043d 9eea 14bc 919b babb
000001a0: 620c 2c3d 2930 82bc d5d2 873c 710f e2bc
000001b0: 1f65 c93b 7d12 eb3c 21f5 71bd dc80 c5bc
000001c0: 518a 1a3d 4a62 f23c a9ed 7c3d ada4 51bc
000001d0: 599c 503c dab9 113d bbf8 173b a415 d3bc
000001e0: d2e3 3cbd 7f8b 25bc 5667 913b 471d 14bc
000001f0: 2355 9bbc 68d6 26bd dc82 0d3d 30a1 e6bc
00000200: 5cee 3a3c 3924 8b3c bb57 b0bc 1fca fbbc
00000210: 9cd3 79bc bfb4 5e3d d714 383d 6df4 0fbd
00000220: 2b30 01bd 2958 723d 5423 f1bc 49b1 c4bc
00000230: dabe 04bc 46b8 d1bc df84 a33c ff4e 44bc
00000240: 9c85 52bc c761 bdbc a95e fabc 5bf6 ac3c
00000250: 5e3d 433d 6068 473c 889a 73bd 72a0 2fbd
00000260: 139d 5e3d 2b3d ad3c ef2f d5bc 3a28 433d
00000270: a6b4 7dbc 1479 873c f79f 5dbd 892b 433c
00000280: 6d00 78b9 8e4a e4bc 84a9 54bc ec0e 31bb
00000290: b210 213d 04cc 71bd 600f 6cbc 6f5f 11bd
000002a0: 0bd3 8e3a 6c8d 7abc 6910 7fbd 3d86 89bc
000002b0: 5bdd 5e3c b16f 4a3c 1b95 4a3d 25b3 8fbd
000002c0: 176f b73b 448f 19bd 1a3c 04bd c86f adbc
000002d0: 8450 10bc a09e 2a3d 4b48 98bb 242e 463c
000002e0: f99e 1d3d bd1a 97bc 3af8 bd3c 5ed7 84bc
000002f0: c750 223c 640f 4fbd 5d7f 1b3d ed33 543c
00000300: d941 213d eac8 ccbc ece1 4a3d d48f 91bb
00000310: aba2 5abc 0873 edbc 3183 b33b b58f efbc
00000320: af26 a9bc a546 253d aade 9abd 484c 39bc
00000330: 2c72 50bd 823c 4d3d 3fb7 fd3b 196f c4bc
00000340: 4f16 0abd 5ac2 bfbc 56eb 073d 3fd0 eb3c
00000350: 6730 813d d148 013c b52e 8a3c 4679 1cbd
00000360: c9fb b4bb 1320 3fbd 21c3 8a3d 3681 8bb9
00000370: 345b e3bc 09dc 7cba 429a 503d 23cd a5bc
00000380: 4b32 93bd 8dd2 a03d 3395 ff3c a291 edbc
00000390: b7fa c43c e9e8 ab3c ba60 8fbc e294 123a
000003a0: 64f1 f43c c78e 3b3b 61a6 18bd 6d20 0bbd
000003b0: 1ad5 bfba 88e0 c2bc 59aa e2bb cc54 0c3c
000003c0: 9604 98bb 8c8e 773c ae7e d3bc 56ce 113d
000003d0: 9b12 16bd a035 84ba 4e5f 50bc 3198 163d
000003e0: d746 4b3c ced5 ca3c 368f 86bd 970d 103d
000003f0: c8ae c1bb fe5b 233c a7c7 a4bd 1061 88bb

conv4.bias f4 [32]
-0.034926217 -0.03674259 -0.057985537 0.032415655 0.03925459 -0.019031465 -0.02206908 0.013045657
0.04742062 0.010934943 0.0030625516 -0.036547437 0.015475579 -0.049710397 0.02005746 0.029060533
0.010399166 -0.033013094 -0.045252834 0.03971432 -0.014452429 -0.044032246 0.0017566598 -0.024942638
0.013114575 0.0064216624 -0.026985727 0.007641196 0.014200945 -0.038155317 0.054635193 -0.026657468
00000000: cb0e 0fbd 667f 16bd 3e82 6dbd 47c6 043d
00000010: 6cc9 203d e0e7 9bbc 37ca b4bc 74bd 553c
00000020: 203c 423d 7a28 333c 17b5 483b c4b2 15bd
00000030: 488d 7d3c 219d 4bbd 8b4f a43c 5b10 ee3c
00000040: 4361 2a3c bd38 07bd 095b 39bd 7cab 223d
00000050: e1c9 6cbc 285b 34bd b93f e63a 8154 ccbc
00000060: 84de 563c cf6c d23b 2c11 ddbc ff62 fa3b
00000070: 15ab 683c c048 1cbd 27c9 5f3d c360 dabc

bn4.weight f4 [32]
1.013476 0.9775639 0.9943166 1.0193751 1.0078924 1.0164664 0.99446434 1.0032958
0.9865171 0.97107327 1.0086955 0.9963226 1.0397085 0.9640318 0.98964965 1.0110888
1.005759 0.9986412 1.0227828 1.0008428 1.0291454 0.96675557 0.9703217 0.9820246
0.9924092 0.99286264 0.99994886 0.9801319 0.98034775 1.0351155 0.9918143 1.0192504
00000000: 95b9 813f a141 7a3f 888b 7e3f e27a 823f
00000010: 9e02 813f 921b 823f 3795 7e3f ff6b 803f
00000020: 628c 7c3f 4298 783f ef1c 813f ff0e 7f3f
00000030: 2b15 853f caca 763f ae59 7d3f 5c6b 813f
00000040: b6bc 803f f3a6 7f3f 8cea 823f 9e1b 803f
00000050: 09bb 833f 4b7d 773f 0167 783f f765 7b3f
00000060: 880e 7e3f 3f2c 7e3f a6fc 7f3f ede9 7a3f
00000070: 12f8 7a3f aa7e 843f 8be7 7d3f cc76 823f

bn4.bias f4 [32]
0.01704575 -0.080735825 -0.009585471 -0.01784431 -0.03429028 0.0034296426 -0.04520008 -0.02246318
-0.00010590396 -0.028958177 0.006368723 -0.02058434 0.012856105 -0.06312911 0.017377041 -0.0342345
-0.074947976 -0.028575582 -0.071412854 -0.07052201 -0.014659717 -0.02234101 0.0007095899 -0.047348365
-0.101933986 -0.08230787 0.001702603 -0.0050868634 -0.031295642 -0.037697885 -0.025747545 -0.0921551
00000000: 87a3 8b3c d358 a5bd 610c 1dbc 3b2e 92bc
00000010: f773 0cbd dbc3 603b b823 39bd b404 b8bc
00000020: c118 deb8 b339 edbc b9b0 d03b 7da0 a8bc
00000030: 6aa2 523c d649 81bd 4c5a 8e3c 7a39 0cbd
00000040: 537e 99bd 5717 eabc e740 92bd d86d 90bd
00000050: 4f2f 70bc 7e04 b7bc c603 3a3a 5cf0 41bd
00000060: c4c2 d0bd 0791 a8bd e029 df3a b4af a6bb
00000070: dc2f 00bd 1969 1abd 84ec d2bc d0bb bcbd
