chess_rules/chess_model.pth (torch, 790241 bytes, 37 tensors)

conv0.weight f4 [64, 1, 13, 3, 3]
000000 24 ec 54 3c df a6 db bd 08 5f 4e bd 25 27 c9 3d
       0.012995753 -0.107251875 -0.050383598 0.09821919
000010 a3 dc 89 3e 66 99 cd 3e 17 9a 11 3f 46 94 b3 3c
       0.26926145 0.40156096 0.5687575 0.021921288
000020 21 33 9f bd b1 87 1a 3e db e2 37 bd b5 d0 48 be
       -0.07773424 0.15090825 -0.04489408 -0.19610865
000030 0e 06 1e bc 87 f1 35 3d fe 74 8b 3d 4e c6 02 3e
       -0.009644998 0.04441979 0.06809424 0.1277096
000040 2a ff bf bd 58 75 2d bc eb 5e 90 3d 86 a9 44 3d
       -0.093748406 -0.010587059 0.07049354 0.048013233
000050 0f e9 aa bd ff 09 30 3c c3 e0 25 3d c8 a6 31 3d
       -0.08345234 0.010744571 0.040497553 0.043371946
000060 59 1a 21 3d f3 ec 66 3d f7 e8 5c bd 57 87 07 3f
       0.039331768 0.056378316 -0.05393311 0.5294089
000070 f1 cb da bd 12 25 89 bd 90 a9 09 3e d5 d8 2c be
       -0.1068343 -0.06696524 0.13443589 -0.1687959
000080 a4 69 92 bd 63 fb 09 bf f2 74 8c bd 2e 64 0f 3d
       -0.071490556 -0.5389921 -0.06858243 0.03500765
000090 de 92 d4 be 43 9b 9f bd 31 b8 03 be 5a aa b7 bc
       -0.415183 -0.07793286 -0.12863232 -0.022420097
0000a0 da 4a d8 bd 16 23 c3 3d b3 6a 93 bd d2 e8 e8 bd
       -0.10561152 0.095281765 -0.07198086 -0.11372532
0000b0 6a d6 af 3c 42 01 8f 3d 4d 24 1b 3d d2 d2 f1 bd
       0.021464545 0.06982662 0.037876416 -0.11807789
0000c0 ca 76 0e be dd 70 0a 3d 5c cc 8e 3d 31 b1 c8 bc
       -0.13912502 0.03379904 0.06972572 -0.024498554
0000d0 c8 09 51 bd c0 25 7d bc a7 6f de 3d c7 5a 62 be
       -0.05103472 -0.015450895 0.1086114 -0.22104941
0000e0 dd bf 6a 3d 3b 30 ab 3d 56 7c 7c be b2 8d df bd
       0.05731188 0.083588086 -0.24656805 -0.10915698
0000f0 4a 6d e3 bd af f4 2b 3d c6 94 22 3e 74 4f 8e 3d
       -0.111048296 0.041981395 0.15877065 0.06948748
000100 31 dd 28 bd c8 e0 7e 3d 1b ea f4 3d 5b e4 06 be
       -0.04122657 0.062226087 0.119587146 -0.13173048
000110 8a a1 4e 3d a3 e8 38 3d ef b5 27 3e 0f 18 95 3c
       0.050447024 0.045143735 0.16377996 0.018199949
000120 68 86 09 3d fa d1 c1 3b a7 f6 51 3c d0 88 0f 3e
       0.033575445 0.0059149237 0.012815154 0.14017034
000130 ae 3d 02 be 9a c2 2a 3d 73 89 02 bf 57 4a b8 3b
       -0.12718841 0.041689493 -0.5099098 0.0056240964
000140 7c 84 32 be c6 d7 c7 3c 17 24 97 bc 1f 70 c2 bd
       -0.17433351 0.024394881 -0.018449826 -0.09494042
000150 db 57 07 be 2a 4d 13 3e 7d a6 22 be 01 33 69 bf
       -0.13217108 0.14384905 -0.15883823 -0.9109345
000160 b1 ef fb 3e d6 d7 0b bf fc 00 93 bc 77 b2 6c bd
       0.49206308 -0.54626215 -0.017944805 -0.057787385
000170 07 82 58 bd 4e ec 81 bd db 54 59 bd bb a0 a8 3e
       -0.05285838 -0.063439 -0.05305944 0.32935128
000180 a7 d0 a0 3d e8 45 9a 3e 4d f8 72 3e eb 38 6b 3d
       0.07852297 0.3013146 0.23727532 0.057427328
000190 82 b9 cb ba a6 79 a4 39 b5 43 ba bc 44 89 45 bc
       -0.0015542957 0.00031371153 -0.022737363 -0.012056652
0001a0 fc 17 47 3d af 2a 30 bf 65 9c c0 3c 51 64 2d 3e
       0.048606858 -0.6881513 0.023512075 0.16932799
0001b0 98 b2 aa bd a8 6e bd bd 1e 81 01 be 24 69 02 3f
       -0.08334845 -0.09249622 -0.1264691 0.5094168
0001c0 20 c5 36 be 31 33 82 bd 62 07 f7 3d cf 10 32 3d
       -0.17848635 -0.0635742 0.12061955 0.04347306
0001d0 38 e8 f2 bd a4 8d 15 be 16 5b 64 3d 56 06 a4 3d
       -0.118606985 -0.14604813 0.05575093 0.08009021
0001e0 dd b6 44 3c 62 fa 36 3e 38 ed 49 be 41 30 43 3d
       0.012006489 0.17868951 -0.19719398 0.04765344
0001f0 70 df ce 3d d8 5b 21 3d 49 23 6c 3d 48 fd d3 3e
       0.10101211 0.03939423 0.057650838 0.41404176
000200 81 13 12 be 36 ac 0c bc 3e a7 b1 be 57 7b 20 be
       -0.14265253 -0.00858598 -0.34697908 -0.1567205
000210 2e 08 57 be 11 78 d0 3d f6 22 99 3c b4 e7 01 be
       -0.20999214 0.10179151 0.018693428 -0.12686044
000220 f6 01 b3 be fa 89 36 3c 69 b7 03 3e 8e a0 77 3e
       -0.34962434 0.011141295 0.12862934 0.2418234
000230 0c 27 bd bd d2 8f 26 3e 44 6b 8f 3e af 02 c7 3d
       -0.09235963 0.162658 0.28011525 0.09717309
000240 bf b4 31 3c 87 2f 68 be 74 3c 60 3f e1 6e 9c bc
       0.010846316 -0.2267438 0.87592244 -0.01909584
000250 40 a7 42 be b0 32 89 bd 3a 3f ac 3d f6 b8 3f 3d
       -0.19009113 -0.06699121 0.08410497 0.046807252
000260 47 e2 aa bd 62 1f 9a bd 12 1e 17 be b7 17 71 3f
       -0.0834394 -0.07525517 -0.14757565 0.9417681
000270 4d 71 ea bd cb f2 82 bc 54 b4 be bd af 8e 18 3f
       -0.11447392 -0.015984913 -0.093117386 0.5959272
000280 12 63 c7 be b0 ba 8f bd 20 78 30 3e 26 2c 87 be
       -0.38942772 -0.0701803 0.17233324 -0.2640087
000290 e2 61 c4 3d 88 b4 89 bd cb 84 e8 bd 8d a8 10 bd
       0.09588982 -0.06723887 -0.11353453 -0.035316993
0002a0 d9 c8 21 be 9d 67 10 3d 86 61 2e bd ea da d6 3d
       -0.15799274 0.035255063 -0.042573474 0.10490973
0002b0 06 02 88 3d 96 8c c3 3c 8c 1b a6 bd 7d f6 17 3e
       0.06641011 0.023870748 -0.08110723 0.14840122
0002c0 89 ef 02 3e 45 cb f9 bc 14 6d 2c be 88 0f ab be
       0.12786688 -0.030492434 -0.16838485 -0.33410287
0002d0 40 21 2c 3e e2 87 c7 3d 8e 5e a2 3d e0 1b d4 bd
       0.16809559 0.097427145 0.07928191 -0.10356879
0002e0 87 29 05 bf 50 22 f3 bc d9 e9 a6 be 5f 50 9e bd
       -0.5201649 -0.029679447 -0.32600287 -0.07730173
0002f0 f4 ad 19 3e 7b 4d 82 bc 0f de 13 be 3c 02 83 3c
       0.15007764 -0.015906086 -0.14440177 0.015992276
000300 b7 62 8d bd 27 33 cd 3d f2 bf 1c 3d c9 b6 46 3e
       -0.06903594 0.10019522 0.03826899 0.19405665
000310 19 15 5d 3d f7 45 ca 3e 4c 9c 58 39 cb c0 7b be
       0.0539752 0.39506504 0.0002065759 -0.24585263
000320 e7 71 df bc 87 69 cc bc cf 50 b2 bb 16 d1 08 3d
       -0.027275993 -0.024952663 -0.005441762 0.033402525
000330 24 b7 b4 3e 37 67 1a 3d b2 d8 cf 3e 1d 4f cb 3b
       0.35295975 0.03769609 0.40595013 0.0062044994
000340 66 bc 17 3d 37 ae 2f 3d d0 88 7d 3d ca 3e 78 3e
       0.037044905 0.042890754 0.061898053 0.24242702
000350 32 29 ab bd 6d b1 af 3e b6 ec dd bd 03 6f 4f 3b
       -0.08357467 0.34315053 -0.10836165 0.0031651861
000360 20 6d 1b 3b ff 9d 2a be 4b f0 d9 3d 18 34 05 be
       0.0023716167 -0.16661833 0.10641535 -0.13008153
000370 4e d7 92 be 4b fe 63 bd 41 2a a3 bc f9 4e 4b bc
       -0.2867989 -0.055662435 -0.01991761 -0.012408965
000380 7a 52 32 3e a3 d2 47 3d b9 f5 23 3f ac c3 eb 3d
       0.17414275 0.048784863 0.6404682 0.11511931
000390 b8 68 4f bd a7 01 52 3f b8 a2 66 bd f9 24 70 3f
       -0.050636977 0.8203377 -0.056307524 0.93806416
0003a0 04 2a 16 be 0d 82 c0 bc 63 01 1c bd 60 47 5a bb
       -0.14664465 -0.023499513 -0.03808726 -0.0033306703
0003b0 e3 d5 ef 3c 48 40 87 3c b1 a2 90 3d 85 82 80 3c
       0.029276794 0.016510144 0.07062281 0.015687237
0003c0 3e 4a 5f be 23 ed e0 3c 43 5b 8e bd ae a0 0d 3d
       -0.21805665 0.027456826 -0.069510005 0.034577064
0003d0 7e 95 28 3c 36 29 c4 3d 24 b7 9a bd 9f 5b 41 3d
       0.010289548 0.09578173 -0.075544626 0.047206517
0003e0 8c bc af bd 65 81 c9 bc 34 a4 12 3d 93 36 f0 be
       -0.08580884 -0.024597833 0.035801128 -0.46916637
0003f0 e2 26 fd 3d b8 0e a3 3d cd 44 e1 bd a5 04 d1 bc
       0.12360932 0.07961792 -0.10999451 -0.02551491

conv0.bias f4 [64]
000000 84 2f 01 3c 34 01 0e 3b 45 6b 7c 3d ee 81 23 bd
       0.007884864 0.0021668198 0.061625738 -0.039918832
000010 48 35 5d 3d 58 c3 ae 3d 6c 2d 73 3d f1 3d b0 3d
       0.05400589 0.085333526 0.05936949 0.086055644
000020 ae ce 86 3d fc dd 8d 3d b4 16 92 3d d0 16 76 bb
       0.0658239 0.06927106 0.071332365 -0.0037550218
000030 9f 63 08 3d fb 57 90 bd 74 f3 97 3d 87 11 26 3d
       0.03329813 -0.07048031 0.07419482 0.04054406
000040 cd 6d 3a 3c bf 1c b5 bd ed ed 20 3b 71 3f 2c 3d
       0.011378718 -0.088433735 0.0024555877 0.04205269
000050 c8 11 35 bd f9 b2 88 3d d8 fd ac 3d b7 76 58 3d
       -0.04420641 0.06674761 0.08446854 0.05284759
000060 02 41 48 3d 90 f8 3c bc 59 f7 b4 3d bd 57 57 bd
       0.04889012 -0.011533871 0.0883624 -0.052573908
000070 d7 ea f0 3b 4a 4c 47 bd 3a c7 ae bd 93 72 53 bc
       0.007352214 -0.04865674 -0.08534093 -0.012905735
000080 36 8a 9c bd c0 6d bc bd f9 c5 55 bd 48 46 69 3d
       -0.07643549 -0.09200621 -0.052190755 0.05695179
000090 eb 18 13 bd e2 33 dc 3c 3a 12 b1 3c 72 d8 99 3d
       -0.035912436 0.026880208 0.021615136 0.07511987
0000a0 d5 0c b0 3d 81 ec da 3c e3 87 2f 3b 8b e2 b0 3c
       0.085961975 0.026724102 0.0026783876 0.0215924
0000b0 5a 0c e9 3c a1 9c 99 bd 2b 68 9d 3c af 54 c2 bc
       0.028448272 -0.07500578 0.01921471 -0.02372202
0000c0 3c ee 89 bd 48 f5 1b bc c5 94 a1 3c a0 d9 9d bc
       -0.06734893 -0.009518929 0.01972426 -0.01926881
0000d0 7e f7 4e 3d 08 b8 3d bd a8 12 45 bd 12 d6 62 bd
       0.050528996 -0.046318084 -0.048113495 -0.055379935
0000e0 73 18 59 3d 94 3c a0 bc e8 ab ae bd da 55 af bd
       0.053001832 -0.019560136 -0.08528882 -0.08561297
0000f0 4a 2d 8f 3d 12 87 e0 3c 4b 31 d1 bc 64 44 3f bb
       0.0699106 0.027408157 -0.0255362 -0.002918505

bn0.weight f4 [64]
000000 ad 0c fc 3e 42 c2 5a 3f 94 e0 37 3f bd 29 df 3f
       0.4922842 0.85452664 0.71827054 1.7434613
000010 92 9d 8e 3f ca f6 bb 3f b6 d7 4e 3f 6a 23 1f 3e
       1.1141837 1.4684689 0.807979 0.15540853
000020 42 31 3d 3f 58 f0 5c 3f 9c 2a 90 3f b7 c7 20 3f
       0.73903286 0.86304235 1.1263003 0.6280474
000030 37 18 b7 3e fe 7a 28 3e f7 3b 02 3f 69 45 7b 3f
       0.35760662 0.16453168 0.5087275 0.98152786
000040 b9 6c c4 3f ce 00 52 3f 65 b0 aa 3f a4 c1 6a 3f
       1.534568 0.8203248 1.3335081 0.9170172
000050 fb 96 bf 3f 91 47 bf 3e 84 34 a1 3e 5b b6 99 3f
       1.496795 0.37359288 0.3148538 1.2008775
000060 9b d2 ac 3f 17 11 8c 3f 57 71 2b 3f 4d b5 96 3e
       1.3501772 1.0942715 0.6696982 0.29435197
000070 37 4d 80 3e e1 54 a8 3e 32 76 40 3f 28 b5 f7 3e
       0.2505891 0.32877257 0.7518035 0.483804
000080 a1 2b 9b 3f 41 eb 03 3f 80 7d c6 3e b8 ef 34 3f
       1.212269 0.51530844 0.38767624 0.7067828
000090 c4 d4 63 3f e2 4f 93 3f e6 f7 96 3f a7 66 29 3f
       0.8899653 1.1508753 1.1794403 0.6617226
0000a0 16 43 3d 3f 67 e3 a8 3e 36 ca 31 3f 70 63 93 3f
       0.7393049 0.32985994 0.69449174 1.1514721
0000b0 ab b6 b2 3f 06 70 9e 3f 81 1a d0 3f 28 3d b9 3f
       1.3961996 1.2377937 1.6258088 1.4471788
0000c0 dd 74 d9 3f df 24 a4 3f 3d 62 18 3f 5a 23 11 3f
       1.6988789 1.2823752 0.595249 0.5669457
0000d0 55 7b b3 3e ec 50 79 3f d2 58 3d 3f 79 0a 15 3f
       0.35055032 0.973891 0.73963654 0.58219105
0000e0 82 41 2e 3f 6b af 14 3f d4 d2 37 3f f8 7d 92 3f
       0.68068707 0.58080167 0.71806073 1.1444693
0000f0 26 fd 32 3f 88 bc 22 3f 69 a3 5a 3f 68 ac bc 3f
       0.69917524 0.63568926 0.85405594 1.4740114

bn0.bias f4 [64]
000000 c2 10 df be 7f 80 29 bf a3 3f 54 bf b5 46 ce bf
       -0.43567473 -0.66211694 -0.829096 -1.6115328
000010 4a ee 44 bf e9 b5 c0 bf 38 7b 0a bf 26 be 17 bf
       -0.769261 -1.5055515 -0.54094267 -0.5927452
000020 97 bf fd be ae b5 1d bf 10 94 7a bf b0 a2 4c bf
       -0.49560234 -0.61605346 -0.97882175 -0.7993574
000030 0f d1 a4 be bc 59 be be dd 87 3e be b7 08 09 bf
       -0.3219075 -0.37177837 -0.18606515 -0.5352892
000040 28 40 9d bf af f6 a2 be 4e 6e 31 bf 1c 3e 4a bf
       -1.2285204 -0.3182883 -0.69308937 -0.7900102
000050 2a 08 ac bf 11 38 03 bd 6a 33 c6 be 8e 47 8b bf
       -1.3439991 -0.03203589 -0.387111 -1.0881212
000060 ab b1 ac bf ae 38 a5 bf 3b 0f 07 bf 67 de 87 3d
       -1.349172 -1.2907922 -0.52757615 0.06634217
000070 9e 9d b0 be 4a de 05 be f0 77 72 bf be 69 c7 be
       -0.34495252 -0.13073078 -0.9471426 -0.38947862
000080 78 0b 7c bf 52 bb 60 be f2 f5 a4 be f6 9f 3c be
       -0.98455 -0.21946457 -0.3221889 -0.18420395
000090 4b 78 36 bf d6 1d 50 bf 97 83 67 bf 73 1a 19 bf
       -0.712773 -0.81295526 -0.90435165 -0.59805983
0000a0 6d 5b 4f bd 89 b7 82 be 56 34 32 be 7a 94 89 bf
       -0.0506243 -0.2553065 -0.17402777 -1.0748436
0000b0 f1 33 7f bf c4 e8 53 bf 08 b3 a9 bf 7d 03 a0 bf
       -0.9968863 -0.8277705 -1.3257761 -1.2501065
0000c0 2c 6c a5 bf 24 d3 9f bf 1a af 1c bf 26 fb f5 bd
       -1.2923636 -1.248631 -0.61204684 -0.120107934
0000d0 e9 3b bc 3c 8d 8a 6e bf 47 78 ab be b5 49 b1 be
       0.022977786 -0.9318016 -0.33490202 -0.34626547
0000e0 d2 72 be be f0 8e 59 be c6 e0 22 bf f2 01 76 bf
       -0.37196976 -0.21245933 -0.6362423 -0.9609672
0000f0 7c 27 11 bf ad 3e 23 bf 2a e2 84 be 48 8a a0 bf
       -0.56700873 -0.6376751 -0.259538 -1.25422

bn0.running_mean f4 [64]
000000 b6 3b 5c 3d fa 77 9a 3d b6 19 79 3d 49 c2 80 be
       0.053767882 0.07542415 0.060815535 -0.25148228
000010 00 76 98 3c 5e 75 2e bd dc b8 13 be 82 8d 8b 3d
       0.018610954 -0.0425924 -0.14425987 0.068141
000020 3b 99 03 3e 06 fd 37 3d 93 68 53 be 82 30 7e bd
       0.12851422 0.044919036 -0.2064536 -0.06205798
000030 23 fa 73 3c 51 5e 7b bd 18 b9 f6 3c 55 4b be bc
       0.01489118 -0.061369244 0.030117556 -0.02322928
000040 bd 4c f6 bd f2 f1 64 bd 46 f5 01 be 86 fb c6 3c
       -0.120263554 -0.0558948 -0.1269122 0.024289858
000050 df 67 5f be 0d 96 98 bd 0d 81 71 3e 3e 58 5d 3d
       -0.21816967 -0.07450495 0.23584385 0.054039232
000060 58 96 de 3a e7 15 10 3d 50 5a 2e 3e 49 4a 5f 3d
       0.0016982062 0.035177138 0.17026639 0.054514203
000070 62 9d 21 bd 63 d0 2f bd 93 2b 10 be 3d 75 98 bc
       -0.039456733 -0.042923342 -0.14079122 -0.018610591
000080 a9 61 ca bd 4b df d2 bd 84 be 63 3c 63 af e7 3c
       -0.098819084 -0.10296496 0.013900403 0.028281873
000090 86 9b 8e bd f1 5e ba 3c 2e b6 5b bd c2 e2 19 be
       -0.069632575 0.02275035 -0.053640537 -0.15027907
0000a0 f6 64 bb bd 8e af bd 3d c9 97 3c bd e3 72 aa bd
       -0.09150116 0.09262 -0.04604319 -0.08322694
0000b0 e7 36 06 be c4 a7 14 be 9c 61 19 ba fa 4f 30 be
       -0.13106881 -0.14517123 -0.0005851032 -0.17218009
0000c0 95 a3 7d bd da 67 b6 be 01 2c b8 3d ec 47 86 bc
       -0.061923582 -0.35626107 0.08992768 -0.016391717
0000d0 42 42 87 3e 00 a0 04 3e e8 29 3f be 50 df 8e bd
       0.26417738 0.1295166 -0.1866833 -0.06976187
0000e0 fc e9 25 3e 33 f1 a1 3c ea 95 c6 bd c9 28 21 be
       0.16202539 0.019768333 -0.096965626 -0.15738215
0000f0 33 24 ab 3b 86 d4 02 be e9 a0 87 be 08 66 4d bd
       0.005222821 -0.12776384 -0.26489952 -0.050146133

bn0.running_var f4 [64]
000000 d5 23 37 3e 4d 11 2d 3e f9 2f 41 3d 88 11 ed 3d
       0.17884763 0.16901131 0.04716489 0.115756094
000010 ac 3a 01 3e b1 9d 3f 3e c8 f2 b4 3d 56 c4 c9 3d
       0.12620038 0.18712498 0.08835369 0.09851901
000020 c1 7a 8a 3e b0 f7 50 3d c7 e5 8f 3e 6c 95 50 3e
       0.2704678 0.051017463 0.28104994 0.203695
000030 a8 8a c5 3d e5 ee d3 3d 4d a5 1a 3e 0f f4 57 3d
       0.09645587 0.103483 0.1510212 0.052722987
000040 0a 75 fd 3d 31 1d 97 3d d9 36 1c 3e 4e 8a c3 3d
       0.12375839 0.07378615 0.15255298 0.09547864
000050 42 49 d6 3d 9d dd 76 3e d4 ed 62 3e 48 5f 1d 3e
       0.104631916 0.24107976 0.22161037 0.15368378
000060 e9 e7 9a 3d 22 81 9b 3d 60 c5 c7 3d fd 56 4b 3e
       0.075637646 0.075929895 0.09754443 0.19857402
000070 ef 42 73 3e 26 bb d7 3d 1a 6d 8e 3e 1a 5e 22 3e
       0.23756002 0.105337426 0.27817613 0.1585621
000080 ab 11 aa 3d 37 55 b5 3d 2e c3 67 3e f0 06 07 3e
       0.08304151 0.08854144 0.22633049 0.1318624
000090 af 8f 79 3e 19 c1 a6 3d 7a 8e 03 3e a5 33 9a 3e
       0.24371217 0.08142299 0.12847319 0.30117527
0000a0 9d fa 86 3d c4 55 cc 3d bd dd ad 3d 71 47 c9 3d
       0.065907694 0.09977296 0.08489559 0.098280795
0000b0 df d5 e4 3d e1 a5 50 3e 28 a7 da 3d f2 9f 2f 3e
       0.11173605 0.20375778 0.10676414 0.17150858
0000c0 1e 7a 8c 3d 87 31 f4 3e 46 1b 09 3f 46 b9 af 3e
       0.068592295 0.47694036 0.5355724 0.3432104
0000d0 8b f0 30 3e d6 0b 4a 3e b0 f5 86 3d aa 46 6b 3d
       0.1727926 0.19731078 0.0658983 0.057440437
0000e0 4b f2 9b 3d 09 09 74 3d 31 85 69 3e f8 48 fe 3d
       0.07614573 0.05957893 0.22804715 0.124162614
0000f0 14 9e 10 3e 36 47 ab 3e bb 8a 6d 3d 24 27 01 3e
       0.14122802 0.33452767 0.05799363 0.12612587

conv1.weight f4 [64, 64, 3, 3]
000000 5d e3 c1 3c 66 00 e4 3b 6d 1c 0b 3d a4 ff 16 3d
       0.023667986 0.0069580553 0.033962656 0.03686489
000010 31 ee d2 bc 8a 4a 7b 3c 09 75 38 bd 66 bd 1f bd
       -0.025748344 0.015337596 -0.04503349 -0.038998984
000020 31 2c f5 bc 02 10 8e 3d 86 0d 02 3e d9 47 00 bd
       -0.029928299 0.06936647 0.12700471 -0.03131852
000030 62 00 43 bd b6 1b cf 3c 7e 86 f8 bc 09 7b 97 bd
       -0.047607787 0.025281768 -0.030337568 -0.07396514
000040 2c ae 03 bd f9 3a a8 bc f7 f6 0b bd bd 5d f5 bb
       -0.032148525 -0.020535933 -0.03417107 -0.007487981
000050 45 c1 98 bd 4c cb 97 3c 71 dc 73 bd 4a 97 ff 3c
       -0.07458738 0.018529557 -0.0595364 0.03120007
000060 5c 96 d7 bd a8 db 9f bd 3f 6b a0 bd 7b 2d 35 bd
       -0.10526726 -0.07805568 -0.078329556 -0.044232827
000070 6c 04 8e 3d 8c a4 86 3e d2 ff ce 3d 85 d9 af 3c
       0.06934437 0.26297414 0.101073876 0.021466026
000080 4f 03 3d bd dc 22 b9 bd a7 53 4c bd b4 2e 53 bd
       -0.046145733 -0.09039852 -0.049884465 -0.05155821
000090 43 13 fb 3d 08 2d 04 bd c6 5d cb bd 1a 84 c6 3b
       0.12259533 -0.032269508 -0.09929995 0.006058228
0000a0 e9 e6 15 bd 86 99 55 bd aa 55 d5 ba d5 0f 04 bd
       -0.036597166 -0.052148364 -0.001627614 -0.03224166
0000b0 08 61 98 3a 20 de 8d bd 62 a8 85 3d 48 b1 06 bd
       0.0011625597 -0.069271326 0.06526257 -0.032883912
0000c0 d1 b7 a5 bd 64 60 43 bd 4f 61 30 bb d4 97 4a 3e
       -0.08091701 -0.047699347 -0.002691347 0.1978448
0000d0 f7 bb 8f bd f3 0b cb bd 8f df 4a 3b aa 7e d9 3b
       -0.07018273 -0.099143885 0.0030956005 0.006637414
0000e0 cf 47 12 be 40 c0 20 bd d3 44 aa 3c f9 2e 8f 3c
       -0.14285205 -0.039245844 0.020784771 0.017478453
0000f0 19 6f 95 bc ac 91 8c bb 0e 82 b4 3c 2b 21 d9 3b
       -0.018241452 -0.0042898264 0.022034671 0.0066262684
000100 f5 b9 7d bc 0c 4e e3 bc b7 1e 73 bc 4c f4 a7 bd
       -0.01548623 -0.027747177 -0.014838866 -0.08200893
000110 cf 4e c0 3d 7d f2 80 bd f7 86 22 bc a2 41 97 3d
       0.093900315 -0.06296251 -0.009919873 0.07385565
000120 aa af 2a 3e 31 50 5e 3d cc d3 1d 3e 1f 93 cf bb
       0.16668573 0.054275695 0.15412825 -0.006334677
000130 ed 00 d5 bc 5b b4 44 3d b5 a3 20 bd 0d b0 79 3d
       -0.026001418 0.048023563 -0.039218623 0.06095891
000140 c8 9e 58 bc e4 eb 3b bc 50 1f 27 ba 46 c6 92 3d
       -0.01322145 -0.011469815 -0.00063752104 0.07166724
000150 12 6a fb bb 25 38 e4 3b ef fd ed 3c fb e3 ae bc
       -0.0076725567 0.0069647008 0.029051749 -0.021348944
000160 77 1a 1f bd 8d 27 e5 bc ff a5 25 3e 9a 0d 7e ba
       -0.0388436 -0.02797296 0.16176604 -0.0009691358
000170 25 34 11 3e df df e5 bc 24 73 d9 3c 36 d1 17 bd
       0.14180048 -0.028060852 0.026544161 -0.037064753
000180 e3 2a 4b bd 19 55 c5 3c 7b b6 41 bd 8f 6f 7f be
       -0.049601447 0.02408843 -0.047293168 -0.249449
000190 23 f2 cc 3e f2 ef b2 3d 05 49 30 3c bc 65 e0 3c
       0.40028486 0.08737172 0.010759597 0.02739226
0001a0 c9 27 0d bd 91 de ad bd c7 ad 8a 3c 0e 63 e3 3b
       -0.03446177 -0.08489717 0.016928567 0.0069392985
0001b0 0c 57 b5 3c 3c 81 4a 3d 90 1f 0a 3e 4e f9 26 3c
       0.022136234 0.049439654 0.13488603 0.010191275
0001c0 63 30 26 bc 87 ca 79 38 77 aa ff bc d0 4f 11 3d
       -0.010143372 5.9554844e-05 -0.031209214 0.035476506
0001d0 db 3d e6 bc 6c 98 a1 bc eb 11 d1 bc 9e fb c8 3c
       -0.028105667 -0.019726 -0.02552124 0.024534043
0001e0 a3 06 b2 3c 2f 70 52 bd 5d d3 a1 ba 5f bc 1f bd
       0.02173168 -0.051376518 -0.0012346316 -0.038998004
0001f0 75 c6 46 bd e8 9d 95 bc 0d 62 6f 3c 97 fc bb bc
       -0.048529107 -0.018263772 0.0146107795 -0.022947593
000200 f8 1d c4 bd a7 b0 d9 3c 31 59 d4 bb a7 ac 2d 3d
       -0.095760286 0.026573492 -0.006480359 0.042400982
000210 c9 62 e5 3c 88 d8 5e bc e0 5d 03 3d 45 05 3d 3d
       0.028001206 -0.01360143 0.032071948 0.046147604
000220 2f 64 d2 3b a8 ab b6 3c cb 95 73 bd 6f 5f c5 3b
       0.006420634 0.022298649 -0.059469026 0.0060233395
000230 b2 3b 30 bd fe bd f5 3c b8 9b 1a bc 67 fa 22 3c
       -0.04302568 0.029997822 -0.00943654 0.009947396
000240 47 d3 a9 bd fb 7b c5 3c 9d 72 e8 bd 2a 81 7a 3a
       -0.08292251 0.02410697 -0.11349986 0.000955599
000250 6d 38 ff 3c 9e 5a d8 bd 52 25 12 3c 28 8a e2 3c
       0.031154836 -0.10564159 0.008920031 0.027653769
000260 0e 36 db 3c 72 63 18 bd 50 48 b8 3c ec dc 8c bc
       0.026759174 -0.037204213 0.022495419 -0.017195188
000270 37 0d 2e 3c 70 b9 db bd bc 43 92 3d 52 bf 13 bd
       0.010623268 -0.10728729 0.071418256 -0.03607113
000280 9a ec 22 bd 2b c1 93 bc 89 e1 3d bc 1f 71 88 bb
       -0.039776422 -0.018036446 -0.011589416 -0.0041638757
000290 ab 63 b8 bc eb b0 97 bd 6a 7a c8 ba d3 42 37 3c
       -0.022508463 -0.07406791 -0.0015295271 0.011185366
0002a0 aa 36 3a 3c 57 31 dc 3c ff 49 3c bc b2 3e 24 3d
       0.011365572 0.026878996 -0.011492251 0.040098853
0002b0 1e 9d 09 bd 8a 62 21 bc a4 de 32 bc a9 ad cd bc
       -0.033597104 -0.009850154 -0.0109173395 -0.025107222
0002c0 cb d3 63 3b 38 52 fa bd d0 2d 18 bd 15 ab dd bc
       0.003476369 -0.12222713 -0.037153065 -0.027059117
0002d0 83 7b c9 bd 88 43 0c 3e 7f fd eb bc fc c4 b9 bc
       -0.09838011 0.13697636 -0.0288074 -0.022676937
0002e0 da e9 83 3c aa 4f 09 be 03 f8 4e 3e 06 9a 4b 3b
       0.01610272 -0.13409296 0.20211796 0.0031067147
0002f0 c6 6b 1c 3d fe a7 cd bc 87 3a 93 3b f0 57 92 3c
       0.03818872 -0.025104519 0.004493061 0.017864197
000300 1f 0f 00 bd 36 0a 05 bc 44 44 65 3d c9 9c c0 3d
       -0.03126442 -0.00812011 0.055973306 0.094049044
000310 9d 20 7e bd 06 0f ff 3c 81 3c 83 3c 27 b9 01 3c
       -0.06204282 0.031135093 0.016020061 0.007917679
000320 c8 45 08 bd 18 78 33 3c f4 a6 ba bc d7 97 57 bd
       -0.033269674 0.010953926 -0.022784688 -0.05263504
000330 3a f0 84 39 3d 2d ee 3c 76 6c 13 3d 17 2c 01 3e
       0.00025355985 0.029074306 0.03599211 0.12614475
000340 ec 52 8c 3c db 49 e6 bc 73 d7 42 bc 9a 4b 47 bd
       0.017129384 -0.028111389 -0.011892187 -0.048656084
000350 4d 45 70 bd 5e 35 2d bd bb fb fd bc b3 3b de bd
       -0.05865984 -0.042287223 -0.031003824 -0.108512305
000360 9d fd 0e 3e b3 1d da 3d 3b e1 ba 3d 62 e2 0f 3c
       0.13963933 0.10650196 0.091249906 0.008782001
000370 c6 4a c0 bd 03 d9 9f 3c e2 96 bb bd ef 88 4b bd
       -0.09389262 0.019512659 -0.09159638 -0.049691137
000380 d8 ed d0 bd a8 ab fd bc 60 b2 8a 3b dd 3b 88 3c
       -0.10201615 -0.030965641 0.0042326897 0.016630108
000390 7f c3 02 bd c6 7d 59 bd 12 7b 9d bd f4 b6 22 3d
       -0.03192472 -0.053098463 -0.076894894 0.03972526
0003a0 43 1f 01 bd bf f7 0c 3d 83 2b 27 bd ab e7 40 3b
       -0.031523954 0.034415957 -0.04081298 0.002943496
0003b0 2e af 25 bb 93 7b 40 3c f0 50 df bc c8 7a 46 3d
       -0.0025281417 0.011748212 -0.027260274 0.048456937
0003c0 5a 43 a9 3c 61 c7 d7 bc 96 0e cd bd 6f 5d 73 bd
       0.020661999 -0.026340188 -0.10012548 -0.059415277
0003d0 1b 1f cc 3c 20 b7 0f ba 8c 02 4d bc a5 c5 e9 3c
       0.024917176 -0.0005482305 -0.012512814 0.028536627
0003e0 5e 61 20 bc 04 01 7e bc 43 83 8f bd 3d d4 a9 bd
       -0.009788839 -0.015503172 -0.07007458 -0.08292434
0003f0 6a 12 80 bd 5b 45 47 bd 78 89 cf 3c b6 ba 7e 3c
       -0.06253512 -0.048650127 0.025334105 0.015547445

conv1.bias f4 [64]
000000 99 4d 58 bc 5f 0d c3 3b 9a 24 14 3d c9 a6 a6 bc
       -0.0132020945 0.0059525217 0.03616772 -0.020343201
000010 5b 66 69 3c da 70 e5 bc ad db 92 3c ca bf c4 3c
       0.014245595 -0.028007913 0.017927015 0.024017233
000020 15 81 ad bc 84 d4 5c 3c 0d 32 15 3d 18 7d eb 39
       -0.021179715 0.013478402 0.036424685 0.00044915895
000030 52 43 b1 bc e4 f1 26 3d 78 0e 25 3d e2 df 69 bc
       -0.021638546 0.04075803 0.040297 -0.014274569
000040 ae 47 de bc ce 29 f8 bc 41 5e 18 3d 40 5b 1c 3d
       -0.027133789 -0.030293372 0.037199263 0.03817296
000050 50 ec ab bc fd be 9b 3c 80 bd 11 bd d9 ee 11 3d
       -0.020986706 0.019011969 -0.035581112 0.035628174
000060 fc 98 84 3c 49 52 dc bc bf 9c eb 3c 3d 8b d1 3c
       0.01618623 -0.026894705 0.028761266 0.02557909
000070 01 fa 02 3c 24 9b 18 bd 9f 14 1d 3d d9 dd d7 3b
       0.007994176 -0.03725733 0.038349744 0.0065877256
000080 78 07 35 ba d6 96 57 bc 20 4e ec 3c 63 bf ed bb
       -0.0006905715 -0.013158521 0.028845847 -0.007255481
000090 dc 2e 29 bd 53 a0 9c bc cf 03 ce bb e3 30 02 bd
       -0.041304454 -0.019119417 -0.006287075 -0.031784903
0000a0 6a 22 53 3c e3 42 0f bd 46 7c f7 3c ac cb bc 3c
       0.012886623 -0.034975898 0.030210625 0.023046337
0000b0 ca 31 7b bb b2 70 97 bc 46 e0 8e 3c 69 e3 59 3c
       -0.0038329237 -0.018486355 0.017440926 0.013298848
0000c0 cb 1b ec bc 0f 89 2e 3a e4 65 9a bc 0c c3 f3 3c
       -0.028821846 0.00066579966 -0.018847413 0.029756092
0000d0 a3 bb 5f 3c 44 00 1b bd 8f 26 29 bd 47 97 26 3b
       0.013655576 -0.03784205 -0.041296538 0.0025419758
0000e0 b4 d9 09 bd c1 d6 13 3c 45 d4 8d 3c 82 82 f2 3c
       -0.033654884 0.009023369 0.017313132 0.029603247
0000f0 c7 82 e0 3c 11 09 06 3d 0b c5 db bb 78 e4 fe 3c
       0.02740611 0.03272349 -0.006706839 0.031114802

bn1.weight f4 [64]
000000 07 be ee 3e 0e b0 1c 3f 05 a7 f2 3e bd c1 3a 3f
       0.46629354 0.6120614 0.4739305 0.7295187
000010 6d 5a 3c 3f a5 be 41 3f ef 33 4a 3f 1c 21 56 3f
       0.7357548 0.75681525 0.78985494 0.8364427
000020 6a 1c 4e 3f 21 e4 e3 3e d2 fd 72 3f 5f 1b 44 3e
       0.80512106 0.44509986 0.9491855 0.19151066
000030 06 d6 46 3f 72 fe 22 3f 48 4b 3a 3f 42 6f 29 3f
       0.77670324 0.636695 0.7277112 0.6618539
000040 54 12 15 3f 0e e5 95 3e 20 81 2d 3f 8a 15 4e 3f
       0.5823109 0.29276317 0.67775154 0.80501616
000050 21 bb a5 3e 21 3f 44 3f b1 bc 1e 3f ac 61 2c 3f
       0.3236933 0.7665883 0.6200667 0.67336535
000060 49 a0 0d 3f 19 23 98 3f 74 f7 19 3f 4b 5e 2e 3f
       0.553227 1.1885711 0.6014321 0.6811263
000070 df 7e 5d 3f 12 4f 44 3f 36 20 01 3f 75 17 d7 3e
       0.86521715 0.7668315 0.50439775 0.42010084
000080 eb 9d f8 3e af aa 46 3f 46 35 2c 3f 6a b7 0b 3f
       0.48557982 0.7760419 0.6726879 0.5457674
000090 2d 70 48 3f 35 5d 3d 3f df 2b 1a 3f 12 2d 5c 3f
       0.78296167 0.7397035 0.6022319 0.8600627
0000a0 2a a1 1a 3f 67 22 b3 3e 45 13 42 3f b7 b5 de 3e
       0.60402167 0.34987184 0.7581065 0.43498012
0000b0 3b fa 50 3f 37 0f 41 3f 56 e4 49 3f de a3 89 3e
       0.8163182 0.7541384 0.7886404 0.26882833
0000c0 a5 aa c3 3e d0 c6 2b 3f 6f 02 50 3f 22 56 d5 3e
       0.3821613 0.6710024 0.81253713 0.41667277
0000d0 52 aa f2 3e 6e 78 59 3f 1a cd 92 3e 71 a5 41 3f
       0.4739557 0.84949386 0.28672105 0.7564307
0000e0 00 cd 06 3f 85 23 2e 3f ad 4f 6a 3f 93 be 4e 3f
       0.52656555 0.6802295 0.91527826 0.80759543
0000f0 51 fe 8b 3e 47 64 13 3f 9b 37 c8 3e 9c d0 27 3f
       0.27342466 0.57574886 0.39104924 0.6555269

bn1.bias f4 [64]
000000 96 a0 f2 be 3e 2a 14 bf 5f 1d 1a bf fc 3c d6 be
       -0.47388142 -0.57876956 -0.60201067 -0.41843402
000010 1a 5b b7 be 88 c2 33 bf c8 f5 dd be 24 09 e5 be
       -0.35811692 -0.70218706 -0.4335158 -0.44733536
000020 df ab d2 be ac 54 2e bf 2a 59 80 bf d0 e3 d3 be
       -0.41146752 -0.6809795 -1.0027211 -0.41384745
000030 61 6b e6 be ab d9 17 bf a5 6d ca be 57 d3 01 bf
       -0.450038 -0.5931651 -0.39536777 -0.50713104
000040 02 99 a5 be 65 be 2f bf 30 68 9e be 17 d2 2f bf
       -0.32343298 -0.68649894 -0.30938864 -0.68679947
000050 93 1b ed be b2 58 bc be 0c 79 31 bf 5c 41 47 be
       -0.463101 -0.3678642 -0.6932533 -0.19458526
000060 0b 47 a7 be c3 35 92 bf 61 b3 aa be bc 69 c2 be
       -0.3267139 -1.1422657 -0.3333998 -0.37971294
000070 c4 81 29 bf 04 63 ee be 80 5b 0d bf c2 eb 51 bf
       -0.6621363 -0.46559918 -0.5521774 -0.8200036
000080 b0 e6 24 bf 71 06 33 bf 53 50 d6 be c4 e7 8e be
       -0.644145 -0.69931704 -0.41858158 -0.27911198
000090 66 3e 69 be 0c e1 cd be 35 21 01 bf 78 36 d0 be
       -0.2277771 -0.4021076 -0.50441295 -0.40666556
0000a0 5f 79 d3 be a5 b6 2a bf 66 09 8d be 26 ea 08 bf
       -0.41303536 -0.66684943 -0.27546233 -0.5348228
0000b0 31 19 2b bf a6 94 4d bf c3 b1 5b bf 0e 27 8f bf
       -0.66835314 -0.80304945 -0.8581812 -1.1183794
0000c0 3d 9d 32 bf ff d1 07 bf 51 ab 01 bf 10 6c 1c bf
       -0.69771177 -0.53054804 -0.50652033 -0.6110239
0000d0 e4 84 f2 be 32 8a 77 bf e6 0a 1e bf e3 f9 22 bf
       -0.47367013 -0.96695244 -0.6173538 -0.63662547
0000e0 ae 20 00 bf c7 e5 fb be 4d e4 75 bf e7 55 32 bf
       -0.50049865 -0.49198744 -0.96051484 -0.69662327
0000f0 85 9a 8e be 1a 1d d4 be 24 8a 02 bf fa 12 49 bf
       -0.27852264 -0.41428453 -0.50992036 -0.7854458

bn1.running_mean f4 [64]
000000 33 18 6b 3d 32 6a 7b 3b d7 08 36 3e 2d 64 6e be
       0.057396125 0.0038362858 0.1777681 -0.23280402
000010 ce 2b b5 be 90 91 54 be 56 7e fd 3d 51 58 89 be
       -0.35384983 -0.20758653 0.12377612 -0.26825193
000020 cb e3 0b be 8e 21 d8 bd 5f 97 03 be d8 95 94 3e
       -0.13661115 -0.10553275 -0.12850712 0.29020572
000030 14 fd ca be 98 d5 4e 3e 76 a6 72 bd 13 b5 2c be
       -0.39646208 0.20198667 -0.05924078 -0.1686595
000040 e6 d2 d1 be d3 19 b2 3f 4e 70 e0 be 7b 8d 20 be
       -0.40981215 1.3914131 -0.43835682 -0.1567897
000050 0f 48 25 3f d6 8b 80 3d b7 46 37 bd 42 2e b0 bd
       0.6456308 0.062766716 -0.044745173 -0.08602573
000060 e5 dc a4 be 81 e3 1d bf 9f 06 7c be 20 19 5e bd
       -0.3219978 -0.6167527 -0.24611901 -0.05422318
000070 bf d6 bd be 89 13 5c be 10 32 fe 3e 9d 81 0b 40
       -0.370779 -0.21491827 0.4964757 2.179786
000080 d9 e7 36 3c e5 b6 a7 be 20 30 cb be ad 7f ee bf
       0.011163675 -0.32756725 -0.39685154 -1.8632714
000090 5a af 00 be b9 f6 0d be 0a ae 8a bd 23 64 c8 be
       -0.12566891 -0.13863648 -0.067714766 -0.39138898
0000a0 d0 35 6a be 40 80 9f 3e b6 13 a7 be 95 ef 4b 3e
       -0.2287209 0.31152534 -0.32632226 0.19915612
0000b0 32 c6 50 bf 4c b8 bd be 46 a7 90 bd fd c8 f2 bd
       -0.8155242 -0.3705467 -0.07063155 -0.11854742
0000c0 e8 1e 90 3e 2e 2d 41 bf 24 fd 7d be ed fa 82 be
       0.2814858 -0.75459564 -0.24803597 -0.25582066
0000d0 ba c8 eb 3d d7 bc c4 be 5b 73 a8 3f c9 13 2d bf
       0.11512895 -0.38425323 1.3160204 -0.67608315
0000e0 d1 cf 47 bf 8a ab 69 3d 6e 09 46 be bc a3 c0 be
       -0.7805148 0.057048358 -0.19339535 -0.3762492
0000f0 83 53 90 3e 41 8b 3e bf a2 e7 16 3f 82 61 36 be
       0.28188714 -0.74431235 0.58947194 -0.17810634

bn1.running_var f4 [64]
000000 6e 1d 47 3f af 7c ca 3e c0 ae 06 41 29 0e 24 3f
       0.7777928 0.3954825 8.417664 0.64084107
000010 93 6e 02 3f 99 ee 22 3f e2 6f 88 3f 41 49 b7 3f
       0.5094997 0.6364532 1.0659144 1.431923
000020 3a b7 c0 3e 40 2a 63 3f 3d fa f8 3e d8 5e 3e 40
       0.3763979 0.88736343 0.48628417 2.9745388
000030 99 91 f3 3e b6 eb 87 3e b1 38 2d 3f fe 1d 51 3f
       0.4757202 0.2654702 0.6766463 0.8168639
000040 e4 d2 b9 3f a3 3c 0c 41 ba b6 1a 3f 38 7c b8 3e
       1.4517484 8.764804 0.6043507 0.3603227
000050 92 bb 86 3f 85 92 d5 3e 36 b7 d1 3e 9d 4e aa 3f
       1.0525992 0.41713348 0.4096009 1.3305241
000060 f9 c4 84 3f 46 97 7d 3f 8b c9 ba 3f 8c 0f 18 3f
       1.0372611 0.9905895 1.4592756 0.5939872
000070 cb 0c d8 3e f6 b3 06 3f ef 15 02 40 7d 15 f8 40
       0.4219726 0.5261835 2.0325887 7.752623
000080 7f 83 b2 3f ef b2 a8 3e 8e ad 54 3f a2 32 09 41
       1.394638 0.32949015 0.83077323 8.574862
000090 8b 02 0c 3f 3a 47 1a 3f f0 0b bb 3e 3e cd 19 3f
       0.5469138 0.60264933 0.36532545 0.600788
0000a0 21 20 56 3f a8 6c 87 40 b0 2e 6c 3f f7 8e 81 3f
       0.83642775 4.2320137 0.9225874 1.0121754
0000b0 41 37 88 3f 5e 4b c0 3e 72 21 0d 3f 52 86 2e 41
       1.0641862 0.375575 0.5512916 10.907793
0000c0 6f 62 85 3f 53 1d 1b 40 41 24 17 3f 59 3c 99 3f
       1.0420665 2.4236648 0.59039694 1.1971542
0000d0 c6 fa 15 3f 2c 43 c9 3e 12 93 cf 40 09 af 0e 3f
       0.58585775 0.3930906 6.486703 0.5573583
0000e0 09 a7 75 3f 06 bc d8 3e de 2f 3a 3f 2f 29 19 3f
       0.95958 0.4233095 0.7272929 0.59828466
0000f0 ff aa f4 3f ee 60 8e 3f 99 20 15 40 13 fc fa 3e
       1.9114684 1.112333 2.3301146 0.49020442

conv2.weight f4 [64, 64, 3, 3]
000000 a2 08 93 3c ff 18 00 bc c3 b7 30 3d cf f3 4b 3d
       0.017948452 -0.0078184595 0.043144 0.04979306
000010 88 86 f5 3c 33 f7 68 bd 4b 86 98 bd 41 11 ae bd
       0.029971376 -0.056876373 -0.07447489 -0.08499385
000020 04 d4 cd 3d 57 27 96 3d 6e 6a c5 3d 94 32 97 bd
       0.100502044 0.07331722 0.096394405 -0.07382694
000030 18 ef b9 3d 3d 0a a9 3b c8 84 78 3e 93 0d 6b be
       0.09078807 0.005158691 0.24269402 -0.22954397
000040 ac 65 65 3d 8d 87 39 bc 01 43 8e 3d b1 77 71 3b
       0.056005165 -0.011323822 0.06946374 0.0036845023
000050 3a 37 53 3e fb b7 a7 3d e8 8d 55 bb 50 48 0d 3d
       0.20626536 0.08189388 -0.0032585803 0.03449279
000060 29 d7 e7 3b fe 97 f2 3c 95 79 67 3d ed a1 ff 3c
       0.0070752096 0.029613491 0.056512434 0.031205142
000070 9b ff 50 bd 73 6d 8f 3d d1 f0 2e bd c6 21 bd bd
       -0.051025014 0.07003298 -0.04271013 -0.092349574
000080 06 96 d4 bc 25 33 26 3e 9f 37 bb bd 6c f9 e8 3d
       -0.025950443 0.16230448 -0.09141468 0.113756984
000090 48 be 8c 3d 17 a7 c2 3c 10 1c 33 3e 89 44 36 bb
       0.06872231 0.023761315 0.17491174 -0.0027811846
0000a0 e7 89 6c bd b6 b4 51 3d 90 09 db 3d 77 59 16 be
       -0.0577487 0.05119773 0.10695183 -0.14682566
0000b0 ec a6 cd 3b bf 63 77 bd ed fe e4 3b 3c 22 55 bc
       0.006276002 -0.06039786 0.0069883973 -0.01300865
0000c0 9a 0d 1c 3e 42 33 0e bb ff eb f2 3d 0a 2b 9b 3e
       0.15239564 -0.0021698033 0.11861419 0.30306274
0000d0 0a 31 a3 3e 60 a4 5f 3c 3d 38 07 3e 44 26 23 3d
       0.3187335 0.01365003 0.13205047 0.039831415
0000e0 37 02 95 3d f4 1e c4 bd 9c 44 f7 bd 9a 8e d8 bd
       0.07275813 -0.09576216 -0.12073633 -0.10574074
0000f0 0c 8f c2 3d 7c 1a 05 be ea 39 2a be d3 03 fe 3d
       0.0949994 -0.12998384 -0.16623655 0.12403073
000100 12 72 4e bc 98 d3 af ba 42 66 07 3d e2 f4 7d 3d
       -0.012600439 -0.00134145 0.033056505 0.062001117
000110 07 83 cb bd c4 92 f9 3d 9d e0 77 3b f8 5c ad 3c
       -0.09937101 0.121861964 0.003782309 0.021162495
000120 b7 57 26 3e db df ca 3d 7c ea ea 3d cc 8f 3e bd
       0.16244398 0.09905978 0.114705056 -0.046523854
000130 70 2b 40 be a2 b0 89 3d dc 36 99 be 76 46 f9 bd
       -0.1876657 0.06723143 -0.29924667 -0.121716425
000140 59 94 16 be 0e 5c a3 bd 59 e4 0b 3d 10 92 88 3c
       -0.14705028 -0.079765424 0.034153316 0.01667121
000150 95 9a f9 3c 90 4b e4 bc d7 e3 b5 bc b2 93 aa 3d
       0.030469218 -0.027868062 -0.022203369 0.08328952
000160 83 62 50 bd 61 72 71 be 67 d5 03 bd d2 2f c1 3d
       -0.050875198 -0.23578788 -0.03218594 0.09432949
000170 d2 b4 68 3c e4 44 de bd 51 87 8b 3d ad 49 95 3c
       0.014203267 -0.108529836 0.06812919 0.018223608
000180 a6 45 22 3d 9c 1b 9c bd 80 c0 80 3e bb 37 df bd
       0.039617203 -0.076224536 0.25146866 -0.108993016
000190 76 ce 0a 3d 41 18 0a 3e e9 9f c6 bc 35 20 47 bd
       0.033888303 0.13485815 -0.024246173 -0.0486147
0001a0 0e 90 8e bd 52 43 1f 3e 99 fe 07 be 76 34 46 3d
       -0.0696107 0.15553024 -0.13280715 0.048389874
0001b0 97 b0 63 bc 15 80 88 bc 06 0a 10 bb 95 bf 8a bd
       -0.013897083 -0.016662637 -0.002197863 -0.067748226
0001c0 5d 25 e1 3d 31 84 92 3d 1e 2d 33 bd 30 64 03 3e
       0.109934546 0.0715412 -0.0437442 0.12831187
0001d0 be 60 93 bd 9f 1f 8b bd 02 e8 63 3d e5 fd dc bd
       -0.071961865 -0.067931406 0.05564118 -0.10790614
0001e0 6a 7b 9d be bc 3f dc 3d 59 85 dc bd c8 4d 1e 3e
       -0.3075822 0.10754344 -0.107676215 0.15459359
0001f0 76 a7 c9 bc 6e be 09 be e7 11 05 be b7 96 f2 3d
       -0.024615984 -0.1345155 -0.1299511 0.11845153
000200 26 7d 6d bd 82 5a f0 bc e2 a0 a7 bd 15 d1 8b bd
       -0.05798068 -0.029340032 -0.08184983 -0.068269886
000210 e3 54 1b 3c 3c 29 3c bc 91 14 51 3c 08 8f 59 3e
       0.009480688 -0.01148444 0.012761251 0.21245968
000220 dc c8 f2 bd a9 f8 fd 3c 5e 61 2a 3e 0f 4c 39 3e
       -0.11854717 0.03100236 0.16638705 0.1809542
000230 d6 36 bc 3d 55 32 b2 bd e8 e7 72 bd 41 68 17 be
       0.091901466 -0.08701006 -0.059303194 -0.14785863
000240 4d 89 f7 3c f7 42 3c bd c7 2c 24 be 54 a3 49 bd
       0.030216837 -0.0459623 -0.16032706 -0.049228027
000250 cc 48 a2 bd 5a 52 64 3d fb 25 4c bd 44 45 14 be
       -0.07924041 0.0557426 -0.04984091 -0.14479548
000260 95 85 93 bc 96 73 00 3e f6 f7 c3 3d cf de 68 3d
       -0.018008033 0.12544093 0.09568779 0.05685311
000270 17 08 73 bc 89 08 34 bd 07 75 8d bd 26 b7 ba 3e
       -0.014833472 -0.043953452 -0.06907087 0.36467856
000280 e6 86 9d bd 63 13 c0 bd c4 9a 4e bd 79 57 d8 bc
       -0.076917455 -0.09378698 -0.050440565 -0.026408898
000290 3c 7f 90 3d 7f e4 32 bc 2c f7 b5 3d 6b c3 a6 bd
       0.07055518 -0.0109187355 0.08885035 -0.08142742
0002a0 5d fa 0a 3e 54 57 76 bc fd 39 fd 3c 07 a1 38 3e
       0.13572069 -0.015035469 0.03091144 0.18030177
0002b0 90 a9 98 bd 19 62 30 be c9 a2 2d 3d 20 54 b3 3c
       -0.074542165 -0.17224921 0.042391572 0.0218907
0002c0 72 a6 62 be 53 9f a6 3d 3f 33 ab be 54 b5 62 3d
       -0.22133806 0.081358574 -0.33437535 0.05534871
0002d0 64 87 6a bd 10 e5 8b bd 8d cb 79 3d 77 83 ac 3d
       -0.057258025 -0.068307996 0.060985137 0.084235124
0002e0 32 29 a8 3e ff 36 52 3d 0c 57 65 3e 82 fc 0c 3d
       0.3284393 0.05132198 0.22396487 0.034420498
0002f0 07 70 c2 3e 93 21 c6 3c 1a b8 82 bd 9e 20 ec 3d
       0.37976095 0.024185931 -0.06382771 0.11529659
000300 fa ee 55 3d c9 13 0d be 1c 11 40 3e 56 ee 3f be
       0.05222986 -0.13777079 0.18756527 -0.18743262
000310 c6 a2 58 bd 39 ee 7b 3d 92 c0 83 3d 0c 9f ed 3d
       -0.052889608 0.061506484 0.06433214 0.116026014
000320 b5 d9 fb bd 57 29 18 3c c3 0e f6 bc d4 f6 10 3d
       -0.12297384 0.0092872 -0.030036336 0.035391644
000330 d5 43 98 3d 7f 52 dd bd f6 cc 35 bc 40 b4 01 3e
       0.07434813 -0.108067505 -0.01109623 0.12666416
000340 5a 02 0a 3c 5f 50 df 3d 90 77 04 3c 94 f7 7c bd
       0.008423412 0.109040014 0.008085147 -0.061759546
000350 93 b6 28 3e 02 af 3a 3d e7 e6 8b be e7 fd 74 3e
       0.16475897 0.045577057 -0.27324602 0.23924981
000360 c0 37 0d 3d 09 10 51 3e 19 41 96 bd 61 08 82 3d
       0.034476995 0.20416273 -0.07336635 0.063492544
000370 c4 df b9 bc a0 23 b4 3c 0a 32 0f 3e d6 a2 24 be
       -0.022689708 0.021989644 0.13983932 -0.16077742
000380 54 0b 45 bd ef 19 93 bd 53 47 59 3d 94 a0 41 bc
       -0.048106506 -0.07182681 0.053046536 -0.01181807
000390 29 45 b2 bd 9b 5b 8f 3d 77 b0 63 bc 24 c8 8b 3e
       -0.087045975 0.06999894 -0.013897053 0.27301133
0003a0 1b 3d cc bd 81 87 40 3e 66 2a 7e bd 9d b0 33 3e
       -0.099725924 0.1880169 -0.062052153 0.17547841
0003b0 03 c9 10 be 15 47 e3 3c 68 75 a5 bc 98 37 d4 ba
       -0.1413918 0.027743855 -0.020197585 -0.0016190885
0003c0 17 0e 46 3d 89 90 a4 3d 2d 39 bf be 3b 12 0d 3e
       0.04835328 0.080353804 -0.3734831 0.13776486
0003d0 c7 47 85 3d 2d ab 9c 3d cb 27 96 be b1 03 6c 3c
       0.06507831 0.07649837 -0.29327235 0.014405177
0003e0 57 a7 37 bd c8 5a 8b bc 28 c6 83 be 16 3f 1d be
       -0.044837322 -0.017011061 -0.2573712 -0.15356097
0003f0 6a 24 a9 3d 17 b2 fa bd c7 d4 8f ba 98 44 3e 3e
       0.082588986 -0.12240999 -0.0010973447 0.18580854

conv2.bias f4 [64]
000000 62 a6 37 bc 3f 5a 7b 3b 2a 5f c2 3c 32 0a 00 3d
       -0.011209102 0.0038353351 0.023727018 0.031259723
000010 16 78 97 bc dd 6f 46 3c ce 85 e1 3c e9 ad cb bc
       -0.018489879 0.012111631 0.027529623 -0.0248632
000020 3e b6 f9 bc 54 f0 23 bb 96 4d 03 bd a4 78 fe 3b
       -0.030482408 -0.0025015073 -0.032056414 0.0077658463
000030 6b 7c d6 3c 52 5a 1c bc 8e 06 93 3c 76 b0 c3 3c
       0.026182374 -0.009543018 0.017947461 0.023887854
000040 f8 6c 1b 3d 08 a7 0f 3d 7c 27 ff b8 50 1a 13 bd
       0.037945718 0.035071403 -0.00012166702 -0.035913765
000050 fa b0 23 3d 09 ce ff 3c 90 f7 a3 38 df 95 bb 3c
       0.0399637 0.031226175 7.818558e-05 0.022898613
000060 82 da 17 3c 66 82 f2 ba bf 32 ed 3c d1 89 51 3c
       0.009268405 -0.0018501997 0.028954862 0.012789206
000070 59 86 b2 ba c2 ca 2d 3c b0 3f 96 bb c4 45 2a bd
       -0.0013620361 0.010607423 -0.004585229 -0.04157044
000080 d7 86 8c 3c 35 e7 97 3c 31 f0 8b bc e5 07 15 3d
       0.01715414 0.018542865 -0.017082306 0.036384482
000090 6d 1d 6b bc 16 34 e6 bc 0f 3a 8e bc ff af 1a bd
       -0.014350277 -0.028101008 -0.017361669 -0.0377655
0000a0 b7 d9 19 3b 19 09 8f 3b 8f cf 0b 3d 93 6b 9a ba
       0.0023475715 0.004365098 0.03413349 -0.0011781327
0000b0 63 08 f6 3b 8d d1 d1 3c 77 6c 24 3d fe 72 ab bb
       0.007508324 0.025612617 0.040142503 -0.005232214
0000c0 40 42 05 bd 0b 9e 48 bc 99 b3 d0 bc b2 36 17 3d
       -0.032533884 -0.012244712 -0.025476264 0.036917396
0000d0 98 5b 87 bc 3a 9f d7 bb 73 6f f8 ba 98 5e bc bc
       -0.016523167 -0.0065802606 -0.0018954113 -0.022994325
0000e0 0c 56 92 bc 69 b6 e0 3c 87 a7 4e ba 00 52 25 3d
       -0.017863296 0.02743073 -0.000788324 0.040361404
0000f0 46 c8 93 bc 4e f1 46 3c 16 63 10 bd 19 ec c2 3b
       -0.018039834 0.012142492 -0.035250746 0.005948555

bn2.weight f4 [64]
000000 f1 53 3c 3f a4 56 44 3f 7a 83 67 3f 77 d3 3d 3f
       0.73565584 0.76694703 0.9043499 0.74150795
000010 bd 8c 51 3f 76 e6 81 3f e0 a6 83 3f 22 78 89 3f
       0.81855375 1.0148456 1.0285301 1.0739787
000020 2e db 37 3f a3 2e 6c 3f 7e 40 88 3f 7f 3d 7b 3f
       0.71818817 0.9225866 1.0644681 0.9814071
000030 c9 6a 90 3f 4c fe 72 3f 71 c1 71 3f 41 28 32 3f
       1.1282588 0.94919276 0.94435793 0.6959267
000040 0b 28 13 3f 7f 83 84 3f 3a be 77 3f 7d a5 40 3f
       0.57482976 1.035263 0.9677464 0.75252515
000050 61 8e 5d 3f ed 48 89 3f 86 68 68 3f e3 61 37 3f
       0.8654538 1.072538 0.9078449 0.7163374
000060 0b bd 1b 3f 20 71 86 3f 9d d3 72 3f ca ff 6c 3f
       0.6083533 1.0503273 0.94854146 0.92577803
000070 6a 2e 91 3f 9d 20 4a 3f 8d 04 44 3f 7a f4 2c 3f
       1.134229 0.78956014 0.76569444 0.6756054
000080 43 a6 82 3f 69 2a 38 3f 1b 5e 97 3f 6b e5 7f 3f
       1.0206989 0.7193971 1.1825594 0.9995944
000090 53 8a 5c 3f 8f 36 8c 3f 44 f1 5b 3f 1e 89 6a 3f
       0.86148566 1.095415 0.8591502 0.91615474
0000a0 08 4b ef 3e b4 21 99 3f 31 45 37 3f 50 e8 6d 3f
       0.46736932 1.196341 0.7158995 0.92932606
0000b0 dd 3a 45 3f c7 f4 3b 3f b7 48 59 3f cb 5f 89 3f
       0.77042943 0.73420376 0.8487658 1.0732359
0000c0 af fd 8e 3f a5 ae 43 3f 9d 89 6b 3f 58 02 8a 3f
       1.1171168 0.7643836 0.92006856 1.0781965
0000d0 5c d1 14 3f 0b ab 75 3f 9d 7c 44 3f fa cb 5e 3f
       0.5813196 0.95964116 0.76752645 0.87029994
0000e0 39 ac 0e 3f b6 46 62 3f 2e 5c 80 3f d3 d0 34 3f
       0.5573154 0.88389146 1.0028131 0.7063114
0000f0 ab 53 74 3f ba ed 35 3f 62 b4 68 3f dd 8d 73 3f
       0.9544017 0.71065867 0.9090024 0.9513834

bn2.bias f4 [64]
000000 de ce 10 bf 4a 46 9e be df bf f8 be a2 ef e9 be
       -0.56565654 -0.30913 -0.48583886 -0.45690638
000010 0d 11 e8 be 1f cd 40 bf ef 6e 25 bf 20 81 44 bf
       -0.4532551 -0.7531299 -0.64622396 -0.7675953
000020 f6 90 e4 be 58 2a 41 bf 89 94 50 bf 79 c3 c8 be
       -0.44641846 -0.75455236 -0.81476647 -0.39211634
000030 c2 9d c6 be 99 f6 10 bf e8 cb af be 53 0b dc be
       -0.38792235 -0.5662628 -0.34335256 -0.4297739
000040 c9 84 be be bd 7e 2d bf db 08 fa be b9 21 7a be
       -0.37210682 -0.6777151 -0.4883488 -0.24426927
000050 0f b9 10 bf 8f c0 e2 be e8 82 3e bf 89 d8 c3 be
       -0.56532377 -0.44287536 -0.744185 -0.3825114
000060 8e af 01 bf f1 96 38 bf 92 66 bf be e4 2e 5e bf
       -0.506585 -0.7210532 -0.37382942 -0.867903
000070 56 f6 73 bf 1d 29 1c bf 49 3c e7 be 10 3b d0 be
       -0.95297754 -0.61000234 -0.4516318 -0.4067006
000080 ef 61 67 be b1 1d 11 bf d9 50 4f bf 58 7c 27 bf
       -0.22595952 -0.5668593 -0.8098274 -0.6542411
000090 d2 5f a4 be 70 88 df be 0a 85 3f bf 3c 9a ed be
       -0.32104355 -0.4365878 -0.74812376 -0.46406734
0000a0 ef fc 00 bf c0 ca 6a bf a5 c3 09 bf 55 c5 9a be
       -0.50385946 -0.9171562 -0.53814155 -0.30228677
0000b0 49 e7 1b bf b3 6a 1c bf 0a 3d 2c bf 3d 02 5e bf
       -0.6089979 -0.6110031 -0.6728064 -0.86722165
0000c0 48 98 2c bf 60 0f c1 be ee e6 0c bf 14 33 13 bf
       -0.6741986 -0.37707043 -0.5503987 -0.57499814
0000d0 d0 08 e1 be 9a b7 09 bf 3b 5a f1 be 1f 40 1c bf
       -0.43952036 -0.5379578 -0.47139153 -0.6103534
0000e0 9b 0e e2 be 18 4d 12 bf a1 29 86 bf 42 7c dd be
       -0.44151768 -0.57148886 -1.0481454 -0.43258864
0000f0 54 6a 79 bf 41 8a e4 be 4f 77 1d bf 46 86 1c bf
       -0.9742787 -0.4463673 -0.61510175 -0.61142385

bn2.running_mean f4 [64]
000000 8d 84 f2 bd a5 f8 df be 37 1a b0 be 47 7b 4d bf
       -0.11841688 -0.43744388 -0.34395 -0.8026623
000010 a4 85 fb be 69 09 66 bd 33 a4 ee be 2c f9 be be
       -0.49125397 -0.056161318 -0.4660965 -0.37299478
000020 ae 45 fa be 2f 0a 16 bf a1 c8 47 be 23 b8 6d 3d
       -0.48881286 -0.5860929 -0.19510128 0.058036935
000030 f9 3c 83 bd 51 90 c6 be c7 51 e5 bd 46 7b 35 bf
       -0.06408114 -0.3878198 -0.111972384 -0.70891225
000040 23 38 6f bf 9e 74 e3 be d6 dd a8 be 35 8d 57 be
       -0.9344503 -0.4442491 -0.32981747 -0.2104996
000050 5f 39 dd bd e8 4c eb be b6 f4 d2 be 9c e4 86 be
       -0.10801958 -0.45957112 -0.41202325 -0.2634629
000060 bb ba df be 00 bc 4b be 69 a6 bd 3e df 29 08 bf
       -0.43697152 -0.19895935 0.37041023 -0.5318889
000070 6d 09 c1 be 2f 50 13 bf ca 4d 8c be a4 88 14 bf
       -0.37702504 -0.57544225 -0.27403098 -0.58021
000080 b3 b0 2c be eb 9d a1 bf 7c 75 b0 bd c9 65 a9 be
       -0.1686428 -1.2626318 -0.08616158 -0.33085468
000090 c8 e1 96 be 38 35 0c be e5 ad 23 bc fb 93 2e be
       -0.29469132 -0.13692176 -0.00999019 -0.17048638
0000a0 ce c0 83 bf 0a 6a 3b bf 1d 62 21 bf f4 92 80 be
       -1.0293214 -0.7320868 -0.63040334 -0.25112116
0000b0 a2 aa e4 be 36 24 25 bf ca ba d0 3a 3f 40 75 be
       -0.44661433 -0.6450838 0.0015924808 -0.23950289
0000c0 22 f6 96 be 18 8d cd 3c db d8 c8 be 28 15 1d be
       -0.2948466 0.025091693 -0.39227948 -0.15340102
0000d0 88 50 7b be c6 48 4a bd 04 86 6e 3e a7 3e b2 be
       -0.24542439 -0.04938581 0.2329331 -0.34813425
0000e0 d7 3e 29 3f a3 70 ba 3d 5b 3a 86 be 21 4a 95 3f
       0.6611151 0.09103515 -0.26216397 1.1663247
0000f0 1f 76 f2 be 6f ff 9f bf d6 f1 cc be 0a 9f 14 be
       -0.47355744 -1.2499827 -0.40028256 -0.14513794

bn2.running_var f4 [64]
000000 54 8d 20 40 d4 4d 15 3f 81 d6 53 3f ea fd 37 3f
       2.508626 0.5832188 0.8274918 0.7187182
000010 c0 27 0a 3f 02 79 a9 3f 32 a3 cc 3e a0 be 73 3f
       0.53966904 1.3240054 0.39968258 0.95212746
000020 71 5d 33 3f 2e 0e 21 3f 37 4a 12 3f fb 06 4f 3f
       0.70064455 0.6291226 0.5714449 0.80870026
000030 15 31 7e 3f 23 e8 a3 3f aa 89 34 3f 33 f1 15 3f
       0.99293643 1.2805218 0.7052256 0.58571166
000040 3a c9 cc 3f 27 91 25 3f 4f 34 5a 3f 52 47 40 3f
       1.599891 0.6467461 0.85236067 0.75108826
000050 de 0e b3 3f 55 ea c6 3f 88 ad fa 3e 6c 9b 15 40
       1.3988912 1.5540262 0.4896052 2.3376112
000060 be b3 46 3f 0f 99 87 3f 4a 10 3d 3f 8a ac 1b 3f
       0.77618015 1.0593585 0.7385298 0.6081015
000070 58 9d 38 3f 32 61 88 3f 53 a5 5f 3f 10 04 54 3f
       0.7211509 1.0654662 0.8736164 0.828187
000080 8a 9d 3d 3f fc 67 93 3f 7f 91 3e 3f 14 bd bd 3f
       0.7406851 1.1516109 0.7444076 1.4823327
000090 78 bf 0b 3f 33 9a 5f 3f 88 d2 28 3f ab 47 d0 3e
       0.54589033 0.87344664 0.65946245 0.40679678
0000a0 1b b7 b0 3f 7f bf 3d 3f 51 04 0b 3f 10 d1 1c 3f
       1.3805879 0.74120325 0.5430346 0.61256504
0000b0 f3 fa 6a 3f 1a bc 97 3f 8d d1 04 3f 9d 9b 37 3f
       0.9178917 1.1854279 0.5188225 0.7172182
0000c0 06 e9 3c 3f 84 4d 1a 3f 39 80 ef 3e dd 3b 91 3f
       0.73793066 0.6027453 0.46777514 1.1346394
0000d0 29 26 90 3f 64 ec 3d 3f e2 97 6d 3f 18 6a 9f 3f
       1.1261646 0.7418883 0.9280988 1.2454252
0000e0 35 f1 eb 3f 33 64 15 3f d5 3f 35 3f 12 85 1b 40
       1.8432986 0.58356017 0.70800525 2.429997
0000f0 b6 5a 2d 3f 22 ea e5 3f 21 9c 18 3f 47 64 81 3f
       0.6771654 1.7962077 0.59613234 1.0108727
